-- Testing: 215 tests, 16 workers --
FAIL: TRITON-SHARED :: Conversion/StructuredToMemref/reducesum_middle_dim.mlir (1 of 215)
******************** TEST 'TRITON-SHARED :: Conversion/StructuredToMemref/reducesum_middle_dim.mlir' FAILED ********************
Exit Code: 2

Command Output (stderr):
--
RUN: at line 1: /home/nhat/github/triton_shared/triton/python/build/cmake.linux-x86_64-cpython-3.8/third_party/triton_shared/tools/triton-shared-opt/triton-shared-opt --split-input-file --triton-to-linalg-experimental /home/nhat/github/triton_shared/test/Conversion/StructuredToMemref/reducesum_middle_dim.mlir | FileCheck /home/nhat/github/triton_shared/test/Conversion/StructuredToMemref/reducesum_middle_dim.mlir
+ /home/nhat/github/triton_shared/triton/python/build/cmake.linux-x86_64-cpython-3.8/third_party/triton_shared/tools/triton-shared-opt/triton-shared-opt --split-input-file --triton-to-linalg-experimental /home/nhat/github/triton_shared/test/Conversion/StructuredToMemref/reducesum_middle_dim.mlir
+ FileCheck /home/nhat/github/triton_shared/test/Conversion/StructuredToMemref/reducesum_middle_dim.mlir
within split at /home/nhat/github/triton_shared/test/Conversion/StructuredToMemref/reducesum_middle_dim.mlir:1 offset :37:5: remark: PtrAnalysis: pointer is not replace with tts.make_tptr so storeOp cannot be rewritten
    tt.store %out, %5 : tensor<32x16x!tt.ptr<bf16>>
    ^
within split at /home/nhat/github/triton_shared/test/Conversion/StructuredToMemref/reducesum_middle_dim.mlir:1 offset :37:5: note: see current operation: tt.store %arg2, %19 : tensor<32x16x!tt.ptr<bf16>>
within split at /home/nhat/github/triton_shared/test/Conversion/StructuredToMemref/reducesum_middle_dim.mlir:1 offset :37:5: remark: PtrAnalysis: Failed to rewrite StoreOp
    tt.store %out, %5 : tensor<32x16x!tt.ptr<bf16>>
    ^
within split at /home/nhat/github/triton_shared/test/Conversion/StructuredToMemref/reducesum_middle_dim.mlir:1 offset :37:5: note: see current operation: tt.store %arg2, %19 : tensor<32x16x!tt.ptr<bf16>>
"builtin.module"() ({
  "tt.func"() <{function_type = (!tt.ptr<bf16>, !tt.ptr<bf16>, tensor<32x16x!tt.ptr<bf16>>) -> (), sym_name = "kernel"}> ({
  ^bb0(%arg0: !tt.ptr<bf16>, %arg1: !tt.ptr<bf16>, %arg2: tensor<32x16x!tt.ptr<bf16>>):
    %0 = "arith.constant"() <{value = dense<0> : tensor<32x16xi32>}> : () -> tensor<32x16xi32>
    %1 = "arith.constant"() <{value = 0 : i32}> : () -> i32
    %2 = "arith.constant"() <{value = 0 : i32}> : () -> i32
    %3 = "arith.constant"() <{value = 256 : index}> : () -> index
    %4 = "tts.make_tptr"(%arg0, %3) <{operandSegmentSizes = array<i32: 1, 1, 0, 0>, order = array<i32>, sizes = array<i64: 32, 256, 16>, static_offsets = array<i64: 0, 0, 0>, static_shape = array<i64: 0, 0, 0>, static_strides = array<i64: -9223372036854775808, 1, 1>}> : (!tt.ptr<bf16>, index) -> tensor<32x256x16x!tt.ptr<bf16>>
    %5 = "tts.load"(%4) <{operandSegmentSizes = array<i32: 1, 0, 0>, static_mask_dims = array<i64>}> : (tensor<32x256x16x!tt.ptr<bf16>>) -> tensor<32x256x16xbf16>
    %6 = "tt.reduce"(%5) <{axis = 1 : i32}> ({
    ^bb0(%arg3: bf16, %arg4: bf16):
      %7 = "arith.addf"(%arg3, %arg4) <{fastmath = #arith.fastmath<none>}> : (bf16, bf16) -> bf16
      "tt.reduce.return"(%7) : (bf16) -> ()
    }) : (tensor<32x256x16xbf16>) -> tensor<32x16xbf16>
    "tt.store"(%0, %6) <{boundaryCheck = array<i32>, cache = 1 : i32, evict = 1 : i32}> : (tensor<32x16xi32>, tensor<32x16xbf16>) -> ()
    "tt.return"() : () -> ()
  }) : () -> ()
}) : () -> ()
processing val
%2 = "arith.constant"() <{value = 0 : i32}> : () -> i32
these are the uses:
actual processing
~~~~
processing val
%1 = "arith.constant"() <{value = 0 : i32}> : () -> i32
these are the uses:
actual processing
~~~~
processing val
%0 = "arith.constant"() <{value = dense<0> : tensor<32x16xi32>}> : () -> tensor<32x16xi32>
these are the uses:
"tt.store"(%0, %6) <{boundaryCheck = array<i32>, cache = 1 : i32, evict = 1 : i32}> : (tensor<32x16xi32>, tensor<32x16xbf16>) -> ()
actual processing
processing user
"tt.store"(%0, %6) <{boundaryCheck = array<i32>, cache = 1 : i32, evict = 1 : i32}> : (tensor<32x16xi32>, tensor<32x16xbf16>) -> ()
tensor<32x16x!tt.ptr<bf16>>
~~~~
"builtin.module"() ({
  "tt.func"() <{function_type = (!tt.ptr<bf16>, !tt.ptr<bf16>, tensor<32x16x!tt.ptr<bf16>>) -> (), sym_name = "kernel"}> ({
  ^bb0(%arg0: !tt.ptr<bf16>, %arg1: !tt.ptr<bf16>, %arg2: tensor<32x16x!tt.ptr<bf16>>):
    %0 = "arith.constant"() <{value = dense<0> : tensor<32x16xi32>}> : () -> tensor<32x16xi32>
    %1 = "arith.constant"() <{value = 0 : i32}> : () -> i32
    %2 = "arith.constant"() <{value = 0 : i32}> : () -> i32
    %3 = "arith.constant"() <{value = 256 : index}> : () -> index
    %4 = "tts.make_tptr"(%arg0, %3) <{operandSegmentSizes = array<i32: 1, 1, 0, 0>, order = array<i32>, sizes = array<i64: 32, 256, 16>, static_offsets = array<i64: 0, 0, 0>, static_shape = array<i64: 0, 0, 0>, static_strides = array<i64: -9223372036854775808, 1, 1>}> : (!tt.ptr<bf16>, index) -> tensor<32x256x16x!tt.ptr<bf16>>
    %5 = "tts.load"(%4) <{operandSegmentSizes = array<i32: 1, 0, 0>, static_mask_dims = array<i64>}> : (tensor<32x256x16x!tt.ptr<bf16>>) -> tensor<32x256x16xbf16>
    %6 = "tt.reduce"(%5) <{axis = 1 : i32}> ({
    ^bb0(%arg3: bf16, %arg4: bf16):
      %8 = "arith.addf"(%arg3, %arg4) <{fastmath = #arith.fastmath<none>}> : (bf16, bf16) -> bf16
      "tt.reduce.return"(%8) : (bf16) -> ()
    }) : (tensor<32x256x16xbf16>) -> tensor<32x16xbf16>
    %7 = "tts.create_ptr"(%arg2, %0) : (tensor<32x16x!tt.ptr<bf16>>, tensor<32x16xi32>) -> tensor<32x16x!tt.ptr<bf16>>
    "tt.store"(%0, %6) <{boundaryCheck = array<i32>, cache = 1 : i32, evict = 1 : i32}> : (tensor<32x16xi32>, tensor<32x16xbf16>) -> ()
    "tt.return"() : () -> ()
  }) : () -> ()
}) : () -> ()
total addptr count: 0
"builtin.module"() ({
  "func.func"() <{function_type = (!tt.ptr<bf16>, !tt.ptr<bf16>, tensor<32x16x!tt.ptr<bf16>>, i32, i32, i32, i32, i32, i32) -> (), sym_name = "kernel"}> ({
  ^bb0(%arg0: !tt.ptr<bf16>, %arg1: !tt.ptr<bf16>, %arg2: tensor<32x16x!tt.ptr<bf16>>, %arg3: i32, %arg4: i32, %arg5: i32, %arg6: i32, %arg7: i32, %arg8: i32):
    %0 = "arith.constant"() <{value = 0 : i32}> : () -> i32
    %1 = "tensor.empty"() : () -> tensor<32x16xi32>
    %2 = "linalg.fill"(%0, %1) <{operandSegmentSizes = array<i32: 1, 1>}> ({
    ^bb0(%arg13: i32, %arg14: i32):
      "linalg.yield"(%arg13) : (i32) -> ()
    }) : (i32, tensor<32x16xi32>) -> tensor<32x16xi32>
    %3 = "arith.constant"() <{value = 256 : index}> : () -> index
    %4 = "builtin.unrealized_conversion_cast"(%arg0) : (!tt.ptr<bf16>) -> memref<*xbf16>
    %5 = "tts.make_tptr"(%4, %3) <{operandSegmentSizes = array<i32: 1, 1, 0, 0>, order = array<i32>, sizes = array<i64: 32, 256, 16>, static_offsets = array<i64: 0, 0, 0>, static_shape = array<i64: 0, 0, 0>, static_strides = array<i64: -9223372036854775808, 1, 1>}> : (memref<*xbf16>, index) -> tensor<32x256x16x!tt.ptr<bf16>>
    %6 = "tts.load"(%5) <{operandSegmentSizes = array<i32: 1, 0, 0>, static_mask_dims = array<i64>}> : (tensor<32x256x16x!tt.ptr<bf16>>) -> tensor<32x256x16xbf16>
    %7 = "arith.constant"() <{value = 0.000000e+00 : bf16}> : () -> bf16
    %8 = "tensor.empty"() : () -> tensor<32x16xbf16>
    %9 = "linalg.fill"(%7, %8) <{operandSegmentSizes = array<i32: 1, 1>}> ({
    ^bb0(%arg11: bf16, %arg12: bf16):
      "linalg.yield"(%arg11) : (bf16) -> ()
    }) : (bf16, tensor<32x16xbf16>) -> tensor<32x16xbf16>
    %10 = "linalg.reduce"(%6, %9) <{dimensions = array<i64: 1>}> ({
    ^bb0(%arg9: bf16, %arg10: bf16):
      %12 = "arith.addf"(%arg9, %arg10) <{fastmath = #arith.fastmath<none>}> : (bf16, bf16) -> bf16
      "linalg.yield"(%12) : (bf16) -> ()
    }) : (tensor<32x256x16xbf16>, tensor<32x16xbf16>) -> tensor<32x16xbf16>
    %11 = "tts.create_ptr"(%arg2, %2) : (tensor<32x16x!tt.ptr<bf16>>, tensor<32x16xi32>) -> tensor<32x16x!tt.ptr<bf16>>
    "tt.store"(%11, %10) <{boundaryCheck = array<i32>, cache = 1 : i32, evict = 1 : i32}> : (tensor<32x16x!tt.ptr<bf16>>, tensor<32x16xbf16>) -> ()
    "func.return"() : () -> ()
  }) : () -> ()
}) : () -> ()
within split at /home/nhat/github/triton_shared/test/Conversion/StructuredToMemref/reducesum_middle_dim.mlir:1 offset :37:5: error: 'memref.cast' op operand #0 must be ranked or unranked memref of any type values, but got 'tensor<32x16x!tt.ptr<bf16>>'
    tt.store %out, %5 : tensor<32x16x!tt.ptr<bf16>>
    ^
within split at /home/nhat/github/triton_shared/test/Conversion/StructuredToMemref/reducesum_middle_dim.mlir:1 offset :37:5: note: see current operation: %12 = "memref.cast"(%arg2) : (tensor<32x16x!tt.ptr<bf16>>) -> memref<?xbf16>
FileCheck error: '<stdin>' is empty.
FileCheck command line:  FileCheck /home/nhat/github/triton_shared/test/Conversion/StructuredToMemref/reducesum_middle_dim.mlir

--

********************
FAIL: TRITON-SHARED :: Conversion/StructuredToMemref/block_ptr_complex_offset.mlir (2 of 215)
******************** TEST 'TRITON-SHARED :: Conversion/StructuredToMemref/block_ptr_complex_offset.mlir' FAILED ********************
Exit Code: 2

Command Output (stderr):
--
RUN: at line 1: /home/nhat/github/triton_shared/triton/python/build/cmake.linux-x86_64-cpython-3.8/third_party/triton_shared/tools/triton-shared-opt/triton-shared-opt --structured-to-memref --split-input-file /home/nhat/github/triton_shared/test/Conversion/StructuredToMemref/block_ptr_complex_offset.mlir | FileCheck /home/nhat/github/triton_shared/test/Conversion/StructuredToMemref/block_ptr_complex_offset.mlir
+ FileCheck /home/nhat/github/triton_shared/test/Conversion/StructuredToMemref/block_ptr_complex_offset.mlir
+ /home/nhat/github/triton_shared/triton/python/build/cmake.linux-x86_64-cpython-3.8/third_party/triton_shared/tools/triton-shared-opt/triton-shared-opt --structured-to-memref --split-input-file /home/nhat/github/triton_shared/test/Conversion/StructuredToMemref/block_ptr_complex_offset.mlir
module {
  func.func @fused_attention_fwd_kernel(%arg0: !tt.ptr<bf16>, %arg1: !tt.ptr<bf16>, %arg2: i64, %arg3: i32, %arg4: i32, %arg5: i32, %arg6: i32, %arg7: i32, %arg8: i32, %arg9: i32) -> tensor<128x128xbf16> {
    %c1 = arith.constant 1 : index
    %c0 = arith.constant 0 : index
    %c128 = arith.constant 128 : index
    %0 = arith.remsi %arg8, %arg3 : i32
    %1 = arith.extsi %0 : i32 to i64
    %2 = arith.muli %1, %arg2 : i64
    %3 = tt.addptr %arg0, %2 : !tt.ptr<bf16>, i64
    %4 = tts.make_tptr %3 to sizes: [128, 128], strides: [%c128, %c1], offsets: [%c0, %c0], shape: [%c128, %c128], order: [1, 0] : <bf16> to !tt.ptr<tensor<128x128xbf16>>
    %5 = "tts.load"(%4) <{operandSegmentSizes = array<i32: 1, 0, 0>, static_mask_dims = array<i64>}> : (!tt.ptr<tensor<128x128xbf16>>) -> tensor<128x128xbf16>
    return %5 : tensor<128x128xbf16>
  }
}
within split at /home/nhat/github/triton_shared/test/Conversion/StructuredToMemref/block_ptr_complex_offset.mlir:1 offset :12:10: error: 'memref.reinterpret_cast' op operand #0 must be ranked or unranked memref of any type values, but got '!tt.ptr<bf16>'
    %4 = tts.make_tptr %3 to sizes: [128, 128], strides: [%c128, %c1], offsets: [%c0, %c0], shape: [%c128, %c128], order: [1, 0] : <bf16> to !tt.ptr<tensor<128x128xbf16>>
         ^
within split at /home/nhat/github/triton_shared/test/Conversion/StructuredToMemref/block_ptr_complex_offset.mlir:1 offset :12:10: note: see current operation: %8 = "memref.reinterpret_cast"(%6, %7, %2, %0) <{operandSegmentSizes = array<i32: 1, 1, 0, 2>, static_offsets = array<i64: -9223372036854775808>, static_sizes = array<i64: 128, 128>, static_strides = array<i64: -9223372036854775808, -9223372036854775808>}> : (!tt.ptr<bf16>, index, index, index) -> memref<128x128xbf16, strided<[?, ?], offset: ?>>
FileCheck error: '<stdin>' is empty.
FileCheck command line:  FileCheck /home/nhat/github/triton_shared/test/Conversion/StructuredToMemref/block_ptr_complex_offset.mlir

--

********************
FAIL: TRITON-SHARED :: Conversion/StructuredToMemref/convert_splat_float.mlir (3 of 215)
******************** TEST 'TRITON-SHARED :: Conversion/StructuredToMemref/convert_splat_float.mlir' FAILED ********************
Exit Code: 2

Command Output (stderr):
--
RUN: at line 1: /home/nhat/github/triton_shared/triton/python/build/cmake.linux-x86_64-cpython-3.8/third_party/triton_shared/tools/triton-shared-opt/triton-shared-opt --split-input-file --triton-to-linalg-experimental /home/nhat/github/triton_shared/test/Conversion/StructuredToMemref/convert_splat_float.mlir | FileCheck /home/nhat/github/triton_shared/test/Conversion/StructuredToMemref/convert_splat_float.mlir
+ /home/nhat/github/triton_shared/triton/python/build/cmake.linux-x86_64-cpython-3.8/third_party/triton_shared/tools/triton-shared-opt/triton-shared-opt --split-input-file --triton-to-linalg-experimental /home/nhat/github/triton_shared/test/Conversion/StructuredToMemref/convert_splat_float.mlir
+ FileCheck /home/nhat/github/triton_shared/test/Conversion/StructuredToMemref/convert_splat_float.mlir
within split at /home/nhat/github/triton_shared/test/Conversion/StructuredToMemref/convert_splat_float.mlir:1 offset :9:9: remark: PtrAnalysis: pointer is not replace with tts.make_tptr so storeOp cannot be rewritten
        tt.store %save0, %0 : tensor<1024x!tt.ptr<f32>>
        ^
within split at /home/nhat/github/triton_shared/test/Conversion/StructuredToMemref/convert_splat_float.mlir:1 offset :9:9: note: see current operation: tt.store %arg2, %0 : tensor<1024x!tt.ptr<f32>>
within split at /home/nhat/github/triton_shared/test/Conversion/StructuredToMemref/convert_splat_float.mlir:1 offset :9:9: remark: PtrAnalysis: Failed to rewrite StoreOp
        tt.store %save0, %0 : tensor<1024x!tt.ptr<f32>>
        ^
within split at /home/nhat/github/triton_shared/test/Conversion/StructuredToMemref/convert_splat_float.mlir:1 offset :9:9: note: see current operation: tt.store %arg2, %0 : tensor<1024x!tt.ptr<f32>>
within split at /home/nhat/github/triton_shared/test/Conversion/StructuredToMemref/convert_splat_float.mlir:1 offset :10:9: remark: PtrAnalysis: pointer is not replace with tts.make_tptr so storeOp cannot be rewritten
        tt.store %save1, %1 : tensor<128x256x!tt.ptr<bf16>>
        ^
within split at /home/nhat/github/triton_shared/test/Conversion/StructuredToMemref/convert_splat_float.mlir:1 offset :10:9: note: see current operation: tt.store %arg3, %1 : tensor<128x256x!tt.ptr<bf16>>
within split at /home/nhat/github/triton_shared/test/Conversion/StructuredToMemref/convert_splat_float.mlir:1 offset :10:9: remark: PtrAnalysis: Failed to rewrite StoreOp
        tt.store %save1, %1 : tensor<128x256x!tt.ptr<bf16>>
        ^
within split at /home/nhat/github/triton_shared/test/Conversion/StructuredToMemref/convert_splat_float.mlir:1 offset :10:9: note: see current operation: tt.store %arg3, %1 : tensor<128x256x!tt.ptr<bf16>>
"builtin.module"() ({
  "tt.func"() <{function_type = (f32, bf16, tensor<1024x!tt.ptr<f32>>, tensor<128x256x!tt.ptr<bf16>>) -> (), sym_name = "kernel"}> ({
  ^bb0(%arg0: f32, %arg1: bf16, %arg2: tensor<1024x!tt.ptr<f32>>, %arg3: tensor<128x256x!tt.ptr<bf16>>):
    %0 = "arith.constant"() <{value = dense<0> : tensor<128x256xi32>}> : () -> tensor<128x256xi32>
    %1 = "arith.constant"() <{value = dense<0> : tensor<1024xi32>}> : () -> tensor<1024xi32>
    %2 = "tt.splat"(%arg0) : (f32) -> tensor<1024xf32>
    %3 = "tt.splat"(%arg1) : (bf16) -> tensor<128x256xbf16>
    "tt.store"(%1, %2) <{boundaryCheck = array<i32>, cache = 1 : i32, evict = 1 : i32}> : (tensor<1024xi32>, tensor<1024xf32>) -> ()
    "tt.store"(%0, %3) <{boundaryCheck = array<i32>, cache = 1 : i32, evict = 1 : i32}> : (tensor<128x256xi32>, tensor<128x256xbf16>) -> ()
    "tt.return"() : () -> ()
  }) : () -> ()
}) : () -> ()
processing val
%1 = "arith.constant"() <{value = dense<0> : tensor<1024xi32>}> : () -> tensor<1024xi32>
these are the uses:
"tt.store"(%1, %2) <{boundaryCheck = array<i32>, cache = 1 : i32, evict = 1 : i32}> : (tensor<1024xi32>, tensor<1024xf32>) -> ()
actual processing
processing user
"tt.store"(%1, %2) <{boundaryCheck = array<i32>, cache = 1 : i32, evict = 1 : i32}> : (tensor<1024xi32>, tensor<1024xf32>) -> ()
tensor<1024x!tt.ptr<f32>>
~~~~
processing val
%0 = "arith.constant"() <{value = dense<0> : tensor<128x256xi32>}> : () -> tensor<128x256xi32>
these are the uses:
"tt.store"(%0, %3) <{boundaryCheck = array<i32>, cache = 1 : i32, evict = 1 : i32}> : (tensor<128x256xi32>, tensor<128x256xbf16>) -> ()
actual processing
processing user
"tt.store"(%0, %3) <{boundaryCheck = array<i32>, cache = 1 : i32, evict = 1 : i32}> : (tensor<128x256xi32>, tensor<128x256xbf16>) -> ()
tensor<128x256x!tt.ptr<bf16>>
~~~~
"builtin.module"() ({
  "tt.func"() <{function_type = (f32, bf16, tensor<1024x!tt.ptr<f32>>, tensor<128x256x!tt.ptr<bf16>>) -> (), sym_name = "kernel"}> ({
  ^bb0(%arg0: f32, %arg1: bf16, %arg2: tensor<1024x!tt.ptr<f32>>, %arg3: tensor<128x256x!tt.ptr<bf16>>):
    %0 = "arith.constant"() <{value = dense<0> : tensor<128x256xi32>}> : () -> tensor<128x256xi32>
    %1 = "arith.constant"() <{value = dense<0> : tensor<1024xi32>}> : () -> tensor<1024xi32>
    %2 = "tt.splat"(%arg0) : (f32) -> tensor<1024xf32>
    %3 = "tt.splat"(%arg1) : (bf16) -> tensor<128x256xbf16>
    %4 = "tts.create_ptr"(%arg2, %1) : (tensor<1024x!tt.ptr<f32>>, tensor<1024xi32>) -> tensor<1024x!tt.ptr<f32>>
    "tt.store"(%1, %2) <{boundaryCheck = array<i32>, cache = 1 : i32, evict = 1 : i32}> : (tensor<1024xi32>, tensor<1024xf32>) -> ()
    %5 = "tts.create_ptr"(%arg3, %0) : (tensor<128x256x!tt.ptr<bf16>>, tensor<128x256xi32>) -> tensor<128x256x!tt.ptr<bf16>>
    "tt.store"(%0, %3) <{boundaryCheck = array<i32>, cache = 1 : i32, evict = 1 : i32}> : (tensor<128x256xi32>, tensor<128x256xbf16>) -> ()
    "tt.return"() : () -> ()
  }) : () -> ()
}) : () -> ()
total addptr count: 0
module {
  func.func @kernel(%arg0: f32, %arg1: bf16, %arg2: tensor<1024x!tt.ptr<f32>>, %arg3: tensor<128x256x!tt.ptr<bf16>>, %arg4: i32, %arg5: i32, %arg6: i32, %arg7: i32, %arg8: i32, %arg9: i32) {
    %c0_i32 = arith.constant 0 : i32
    %0 = tensor.empty() : tensor<128x256xi32>
    %1 = linalg.fill ins(%c0_i32 : i32) outs(%0 : tensor<128x256xi32>) -> tensor<128x256xi32>
    %c0_i32_0 = arith.constant 0 : i32
    %2 = tensor.empty() : tensor<1024xi32>
    %3 = linalg.fill ins(%c0_i32_0 : i32) outs(%2 : tensor<1024xi32>) -> tensor<1024xi32>
    %4 = tensor.empty() : tensor<1024xf32>
    %5 = linalg.fill ins(%arg0 : f32) outs(%4 : tensor<1024xf32>) -> tensor<1024xf32>
    %6 = tensor.empty() : tensor<128x256xbf16>
    %7 = linalg.fill ins(%arg1 : bf16) outs(%6 : tensor<128x256xbf16>) -> tensor<128x256xbf16>
    %8 = "tts.create_ptr"(%arg2, %3) : (tensor<1024x!tt.ptr<f32>>, tensor<1024xi32>) -> tensor<1024x!tt.ptr<f32>>
    tt.store %8, %5 : tensor<1024x!tt.ptr<f32>>
    %9 = "tts.create_ptr"(%arg3, %1) : (tensor<128x256x!tt.ptr<bf16>>, tensor<128x256xi32>) -> tensor<128x256x!tt.ptr<bf16>>
    tt.store %9, %7 : tensor<128x256x!tt.ptr<bf16>>
    return
  }
}
within split at /home/nhat/github/triton_shared/test/Conversion/StructuredToMemref/convert_splat_float.mlir:1 offset :9:9: error: 'memref.cast' op operand #0 must be ranked or unranked memref of any type values, but got 'tensor<1024x!tt.ptr<f32>>'
        tt.store %save0, %0 : tensor<1024x!tt.ptr<f32>>
        ^
within split at /home/nhat/github/triton_shared/test/Conversion/StructuredToMemref/convert_splat_float.mlir:1 offset :9:9: note: see current operation: %10 = "memref.cast"(%arg2) : (tensor<1024x!tt.ptr<f32>>) -> memref<?xf32>
FileCheck error: '<stdin>' is empty.
FileCheck command line:  FileCheck /home/nhat/github/triton_shared/test/Conversion/StructuredToMemref/convert_splat_float.mlir

--

********************
PASS: TRITON-SHARED :: Conversion/StructuredToMemref/wraparound_side_by_side.mlir (4 of 215)
FAIL: TRITON-SHARED :: Conversion/StructuredToMemref/convert_2d_elemwise_arith_binary.mlir (5 of 215)
******************** TEST 'TRITON-SHARED :: Conversion/StructuredToMemref/convert_2d_elemwise_arith_binary.mlir' FAILED ********************
Exit Code: 2

Command Output (stderr):
--
RUN: at line 1: /home/nhat/github/triton_shared/triton/python/build/cmake.linux-x86_64-cpython-3.8/third_party/triton_shared/tools/triton-shared-opt/triton-shared-opt --split-input-file --triton-to-linalg-experimental /home/nhat/github/triton_shared/test/Conversion/StructuredToMemref/convert_2d_elemwise_arith_binary.mlir | FileCheck /home/nhat/github/triton_shared/test/Conversion/StructuredToMemref/convert_2d_elemwise_arith_binary.mlir
+ /home/nhat/github/triton_shared/triton/python/build/cmake.linux-x86_64-cpython-3.8/third_party/triton_shared/tools/triton-shared-opt/triton-shared-opt --split-input-file --triton-to-linalg-experimental /home/nhat/github/triton_shared/test/Conversion/StructuredToMemref/convert_2d_elemwise_arith_binary.mlir
+ FileCheck /home/nhat/github/triton_shared/test/Conversion/StructuredToMemref/convert_2d_elemwise_arith_binary.mlir
within split at /home/nhat/github/triton_shared/test/Conversion/StructuredToMemref/convert_2d_elemwise_arith_binary.mlir:1 offset :27:9: remark: PtrAnalysis: pointer is not replace with tts.make_tptr so storeOp cannot be rewritten
        tt.store %c, %res0 : tensor<128x128x!tt.ptr<f32>>
        ^
within split at /home/nhat/github/triton_shared/test/Conversion/StructuredToMemref/convert_2d_elemwise_arith_binary.mlir:1 offset :27:9: note: see current operation: tt.store %arg2, %15 : tensor<128x128x!tt.ptr<f32>>
within split at /home/nhat/github/triton_shared/test/Conversion/StructuredToMemref/convert_2d_elemwise_arith_binary.mlir:1 offset :27:9: remark: PtrAnalysis: Failed to rewrite StoreOp
        tt.store %c, %res0 : tensor<128x128x!tt.ptr<f32>>
        ^
within split at /home/nhat/github/triton_shared/test/Conversion/StructuredToMemref/convert_2d_elemwise_arith_binary.mlir:1 offset :27:9: note: see current operation: tt.store %arg2, %15 : tensor<128x128x!tt.ptr<f32>>
within split at /home/nhat/github/triton_shared/test/Conversion/StructuredToMemref/convert_2d_elemwise_arith_binary.mlir:1 offset :28:9: remark: PtrAnalysis: pointer is not replace with tts.make_tptr so storeOp cannot be rewritten
        tt.store %d, %res1 : tensor<128x128x!tt.ptr<f32>>
        ^
within split at /home/nhat/github/triton_shared/test/Conversion/StructuredToMemref/convert_2d_elemwise_arith_binary.mlir:1 offset :28:9: note: see current operation: tt.store %arg3, %16 : tensor<128x128x!tt.ptr<f32>>
within split at /home/nhat/github/triton_shared/test/Conversion/StructuredToMemref/convert_2d_elemwise_arith_binary.mlir:1 offset :28:9: remark: PtrAnalysis: Failed to rewrite StoreOp
        tt.store %d, %res1 : tensor<128x128x!tt.ptr<f32>>
        ^
within split at /home/nhat/github/triton_shared/test/Conversion/StructuredToMemref/convert_2d_elemwise_arith_binary.mlir:1 offset :28:9: note: see current operation: tt.store %arg3, %16 : tensor<128x128x!tt.ptr<f32>>
"builtin.module"() ({
  "tt.func"() <{function_type = (!tt.ptr<f32>, !tt.ptr<f32>, tensor<128x128x!tt.ptr<f32>>, tensor<128x128x!tt.ptr<f32>>) -> (), sym_name = "kernel"}> ({
  ^bb0(%arg0: !tt.ptr<f32>, %arg1: !tt.ptr<f32>, %arg2: tensor<128x128x!tt.ptr<f32>>, %arg3: tensor<128x128x!tt.ptr<f32>>):
    %0 = "arith.constant"() <{value = dense<0> : tensor<128x128xi32>}> : () -> tensor<128x128xi32>
    %1 = "arith.constant"() <{value = dense<0> : tensor<128x128xi32>}> : () -> tensor<128x128xi32>
    %2 = "arith.constant"() <{value = 0 : i32}> : () -> i32
    %3 = "arith.constant"() <{value = 0 : i32}> : () -> i32
    %4 = "tts.make_tptr"(%arg0) <{operandSegmentSizes = array<i32: 1, 0, 0, 0>, order = array<i32>, sizes = array<i64: 128, 128>, static_offsets = array<i64: 0, 0>, static_shape = array<i64: 0, 0>, static_strides = array<i64: 1, 1>}> : (!tt.ptr<f32>) -> tensor<128x128x!tt.ptr<f32>>
    %5 = "tts.make_tptr"(%arg1) <{operandSegmentSizes = array<i32: 1, 0, 0, 0>, order = array<i32>, sizes = array<i64: 128, 128>, static_offsets = array<i64: 0, 0>, static_shape = array<i64: 0, 0>, static_strides = array<i64: 1, 1>}> : (!tt.ptr<f32>) -> tensor<128x128x!tt.ptr<f32>>
    %6 = "tts.load"(%4) <{operandSegmentSizes = array<i32: 1, 0, 0>, static_mask_dims = array<i64>}> : (tensor<128x128x!tt.ptr<f32>>) -> tensor<128x128xf32>
    %7 = "tts.load"(%5) <{operandSegmentSizes = array<i32: 1, 0, 0>, static_mask_dims = array<i64>}> : (tensor<128x128x!tt.ptr<f32>>) -> tensor<128x128xf32>
    %8 = "arith.addf"(%6, %7) <{fastmath = #arith.fastmath<none>}> : (tensor<128x128xf32>, tensor<128x128xf32>) -> tensor<128x128xf32>
    %9 = "arith.subf"(%6, %7) <{fastmath = #arith.fastmath<none>}> : (tensor<128x128xf32>, tensor<128x128xf32>) -> tensor<128x128xf32>
    "tt.store"(%1, %8) <{boundaryCheck = array<i32>, cache = 1 : i32, evict = 1 : i32}> : (tensor<128x128xi32>, tensor<128x128xf32>) -> ()
    "tt.store"(%0, %9) <{boundaryCheck = array<i32>, cache = 1 : i32, evict = 1 : i32}> : (tensor<128x128xi32>, tensor<128x128xf32>) -> ()
    "tt.return"() : () -> ()
  }) : () -> ()
}) : () -> ()
processing val
%3 = "arith.constant"() <{value = 0 : i32}> : () -> i32
these are the uses:
actual processing
~~~~
processing val
%2 = "arith.constant"() <{value = 0 : i32}> : () -> i32
these are the uses:
actual processing
~~~~
processing val
%1 = "arith.constant"() <{value = dense<0> : tensor<128x128xi32>}> : () -> tensor<128x128xi32>
these are the uses:
"tt.store"(%1, %8) <{boundaryCheck = array<i32>, cache = 1 : i32, evict = 1 : i32}> : (tensor<128x128xi32>, tensor<128x128xf32>) -> ()
actual processing
processing user
"tt.store"(%1, %8) <{boundaryCheck = array<i32>, cache = 1 : i32, evict = 1 : i32}> : (tensor<128x128xi32>, tensor<128x128xf32>) -> ()
tensor<128x128x!tt.ptr<f32>>
~~~~
processing val
%0 = "arith.constant"() <{value = dense<0> : tensor<128x128xi32>}> : () -> tensor<128x128xi32>
these are the uses:
"tt.store"(%0, %9) <{boundaryCheck = array<i32>, cache = 1 : i32, evict = 1 : i32}> : (tensor<128x128xi32>, tensor<128x128xf32>) -> ()
actual processing
processing user
"tt.store"(%0, %9) <{boundaryCheck = array<i32>, cache = 1 : i32, evict = 1 : i32}> : (tensor<128x128xi32>, tensor<128x128xf32>) -> ()
tensor<128x128x!tt.ptr<f32>>
~~~~
"builtin.module"() ({
  "tt.func"() <{function_type = (!tt.ptr<f32>, !tt.ptr<f32>, tensor<128x128x!tt.ptr<f32>>, tensor<128x128x!tt.ptr<f32>>) -> (), sym_name = "kernel"}> ({
  ^bb0(%arg0: !tt.ptr<f32>, %arg1: !tt.ptr<f32>, %arg2: tensor<128x128x!tt.ptr<f32>>, %arg3: tensor<128x128x!tt.ptr<f32>>):
    %0 = "arith.constant"() <{value = dense<0> : tensor<128x128xi32>}> : () -> tensor<128x128xi32>
    %1 = "arith.constant"() <{value = dense<0> : tensor<128x128xi32>}> : () -> tensor<128x128xi32>
    %2 = "arith.constant"() <{value = 0 : i32}> : () -> i32
    %3 = "arith.constant"() <{value = 0 : i32}> : () -> i32
    %4 = "tts.make_tptr"(%arg0) <{operandSegmentSizes = array<i32: 1, 0, 0, 0>, order = array<i32>, sizes = array<i64: 128, 128>, static_offsets = array<i64: 0, 0>, static_shape = array<i64: 0, 0>, static_strides = array<i64: 1, 1>}> : (!tt.ptr<f32>) -> tensor<128x128x!tt.ptr<f32>>
    %5 = "tts.make_tptr"(%arg1) <{operandSegmentSizes = array<i32: 1, 0, 0, 0>, order = array<i32>, sizes = array<i64: 128, 128>, static_offsets = array<i64: 0, 0>, static_shape = array<i64: 0, 0>, static_strides = array<i64: 1, 1>}> : (!tt.ptr<f32>) -> tensor<128x128x!tt.ptr<f32>>
    %6 = "tts.load"(%4) <{operandSegmentSizes = array<i32: 1, 0, 0>, static_mask_dims = array<i64>}> : (tensor<128x128x!tt.ptr<f32>>) -> tensor<128x128xf32>
    %7 = "tts.load"(%5) <{operandSegmentSizes = array<i32: 1, 0, 0>, static_mask_dims = array<i64>}> : (tensor<128x128x!tt.ptr<f32>>) -> tensor<128x128xf32>
    %8 = "arith.addf"(%6, %7) <{fastmath = #arith.fastmath<none>}> : (tensor<128x128xf32>, tensor<128x128xf32>) -> tensor<128x128xf32>
    %9 = "arith.subf"(%6, %7) <{fastmath = #arith.fastmath<none>}> : (tensor<128x128xf32>, tensor<128x128xf32>) -> tensor<128x128xf32>
    %10 = "tts.create_ptr"(%arg2, %1) : (tensor<128x128x!tt.ptr<f32>>, tensor<128x128xi32>) -> tensor<128x128x!tt.ptr<f32>>
    "tt.store"(%1, %8) <{boundaryCheck = array<i32>, cache = 1 : i32, evict = 1 : i32}> : (tensor<128x128xi32>, tensor<128x128xf32>) -> ()
    %11 = "tts.create_ptr"(%arg3, %0) : (tensor<128x128x!tt.ptr<f32>>, tensor<128x128xi32>) -> tensor<128x128x!tt.ptr<f32>>
    "tt.store"(%0, %9) <{boundaryCheck = array<i32>, cache = 1 : i32, evict = 1 : i32}> : (tensor<128x128xi32>, tensor<128x128xf32>) -> ()
    "tt.return"() : () -> ()
  }) : () -> ()
}) : () -> ()
total addptr count: 0
"builtin.module"() ({
  "func.func"() <{function_type = (!tt.ptr<f32>, !tt.ptr<f32>, tensor<128x128x!tt.ptr<f32>>, tensor<128x128x!tt.ptr<f32>>, i32, i32, i32, i32, i32, i32) -> (), sym_name = "kernel"}> ({
  ^bb0(%arg0: !tt.ptr<f32>, %arg1: !tt.ptr<f32>, %arg2: tensor<128x128x!tt.ptr<f32>>, %arg3: tensor<128x128x!tt.ptr<f32>>, %arg4: i32, %arg5: i32, %arg6: i32, %arg7: i32, %arg8: i32, %arg9: i32):
    %0 = "arith.constant"() <{value = 0 : i32}> : () -> i32
    %1 = "tensor.empty"() : () -> tensor<128x128xi32>
    %2 = "linalg.fill"(%0, %1) <{operandSegmentSizes = array<i32: 1, 1>}> ({
    ^bb0(%arg16: i32, %arg17: i32):
      "linalg.yield"(%arg16) : (i32) -> ()
    }) : (i32, tensor<128x128xi32>) -> tensor<128x128xi32>
    %3 = "builtin.unrealized_conversion_cast"(%arg0) : (!tt.ptr<f32>) -> memref<*xf32>
    %4 = "tts.make_tptr"(%3) <{operandSegmentSizes = array<i32: 1, 0, 0, 0>, order = array<i32>, sizes = array<i64: 128, 128>, static_offsets = array<i64: 0, 0>, static_shape = array<i64: 0, 0>, static_strides = array<i64: 1, 1>}> : (memref<*xf32>) -> tensor<128x128x!tt.ptr<f32>>
    %5 = "builtin.unrealized_conversion_cast"(%arg1) : (!tt.ptr<f32>) -> memref<*xf32>
    %6 = "tts.make_tptr"(%5) <{operandSegmentSizes = array<i32: 1, 0, 0, 0>, order = array<i32>, sizes = array<i64: 128, 128>, static_offsets = array<i64: 0, 0>, static_shape = array<i64: 0, 0>, static_strides = array<i64: 1, 1>}> : (memref<*xf32>) -> tensor<128x128x!tt.ptr<f32>>
    %7 = "tts.load"(%4) <{operandSegmentSizes = array<i32: 1, 0, 0>, static_mask_dims = array<i64>}> : (tensor<128x128x!tt.ptr<f32>>) -> tensor<128x128xf32>
    %8 = "tts.load"(%6) <{operandSegmentSizes = array<i32: 1, 0, 0>, static_mask_dims = array<i64>}> : (tensor<128x128x!tt.ptr<f32>>) -> tensor<128x128xf32>
    %9 = "linalg.generic"(%7, %8, %7) <{indexing_maps = [affine_map<(d0, d1) -> (d0, d1)>, affine_map<(d0, d1) -> (d0, d1)>, affine_map<(d0, d1) -> (d0, d1)>], iterator_types = [#linalg.iterator_type<parallel>, #linalg.iterator_type<parallel>], operandSegmentSizes = array<i32: 2, 1>}> ({
    ^bb0(%arg13: f32, %arg14: f32, %arg15: f32):
      %14 = "arith.addf"(%arg13, %arg14) <{fastmath = #arith.fastmath<none>}> : (f32, f32) -> f32
      "linalg.yield"(%14) : (f32) -> ()
    }) : (tensor<128x128xf32>, tensor<128x128xf32>, tensor<128x128xf32>) -> tensor<128x128xf32>
    %10 = "linalg.generic"(%7, %8, %7) <{indexing_maps = [affine_map<(d0, d1) -> (d0, d1)>, affine_map<(d0, d1) -> (d0, d1)>, affine_map<(d0, d1) -> (d0, d1)>], iterator_types = [#linalg.iterator_type<parallel>, #linalg.iterator_type<parallel>], operandSegmentSizes = array<i32: 2, 1>}> ({
    ^bb0(%arg10: f32, %arg11: f32, %arg12: f32):
      %13 = "arith.subf"(%arg10, %arg11) <{fastmath = #arith.fastmath<none>}> : (f32, f32) -> f32
      "linalg.yield"(%13) : (f32) -> ()
    }) : (tensor<128x128xf32>, tensor<128x128xf32>, tensor<128x128xf32>) -> tensor<128x128xf32>
    %11 = "tts.create_ptr"(%arg2, %2) : (tensor<128x128x!tt.ptr<f32>>, tensor<128x128xi32>) -> tensor<128x128x!tt.ptr<f32>>
    "tt.store"(%11, %9) <{boundaryCheck = array<i32>, cache = 1 : i32, evict = 1 : i32}> : (tensor<128x128x!tt.ptr<f32>>, tensor<128x128xf32>) -> ()
    %12 = "tts.create_ptr"(%arg3, %2) : (tensor<128x128x!tt.ptr<f32>>, tensor<128x128xi32>) -> tensor<128x128x!tt.ptr<f32>>
    "tt.store"(%12, %10) <{boundaryCheck = array<i32>, cache = 1 : i32, evict = 1 : i32}> : (tensor<128x128x!tt.ptr<f32>>, tensor<128x128xf32>) -> ()
    "func.return"() : () -> ()
  }) : () -> ()
}) : () -> ()
within split at /home/nhat/github/triton_shared/test/Conversion/StructuredToMemref/convert_2d_elemwise_arith_binary.mlir:1 offset :27:9: error: 'memref.cast' op operand #0 must be ranked or unranked memref of any type values, but got 'tensor<128x128x!tt.ptr<f32>>'
        tt.store %c, %res0 : tensor<128x128x!tt.ptr<f32>>
        ^
within split at /home/nhat/github/triton_shared/test/Conversion/StructuredToMemref/convert_2d_elemwise_arith_binary.mlir:1 offset :27:9: note: see current operation: %13 = "memref.cast"(%arg2) : (tensor<128x128x!tt.ptr<f32>>) -> memref<?xf32>
FileCheck error: '<stdin>' is empty.
FileCheck command line:  FileCheck /home/nhat/github/triton_shared/test/Conversion/StructuredToMemref/convert_2d_elemwise_arith_binary.mlir

--

********************
FAIL: TRITON-SHARED :: Conversion/StructuredToMemref/reducemax_32_256_bf16.mlir (6 of 215)
******************** TEST 'TRITON-SHARED :: Conversion/StructuredToMemref/reducemax_32_256_bf16.mlir' FAILED ********************
Exit Code: 2

Command Output (stderr):
--
RUN: at line 1: /home/nhat/github/triton_shared/triton/python/build/cmake.linux-x86_64-cpython-3.8/third_party/triton_shared/tools/triton-shared-opt/triton-shared-opt --split-input-file --triton-to-linalg-experimental /home/nhat/github/triton_shared/test/Conversion/StructuredToMemref/reducemax_32_256_bf16.mlir | FileCheck /home/nhat/github/triton_shared/test/Conversion/StructuredToMemref/reducemax_32_256_bf16.mlir
+ /home/nhat/github/triton_shared/triton/python/build/cmake.linux-x86_64-cpython-3.8/third_party/triton_shared/tools/triton-shared-opt/triton-shared-opt --split-input-file --triton-to-linalg-experimental /home/nhat/github/triton_shared/test/Conversion/StructuredToMemref/reducemax_32_256_bf16.mlir
+ FileCheck /home/nhat/github/triton_shared/test/Conversion/StructuredToMemref/reducemax_32_256_bf16.mlir
within split at /home/nhat/github/triton_shared/test/Conversion/StructuredToMemref/reducemax_32_256_bf16.mlir:1 offset :37:5: remark: PtrAnalysis: pointer is not replace with tts.make_tptr so storeOp cannot be rewritten
    tt.store %res, %6 : tensor<256x16x!tt.ptr<bf16>>
    ^
within split at /home/nhat/github/triton_shared/test/Conversion/StructuredToMemref/reducemax_32_256_bf16.mlir:1 offset :37:5: note: see current operation: tt.store %arg1, %19 : tensor<256x16x!tt.ptr<bf16>>
within split at /home/nhat/github/triton_shared/test/Conversion/StructuredToMemref/reducemax_32_256_bf16.mlir:1 offset :37:5: remark: PtrAnalysis: Failed to rewrite StoreOp
    tt.store %res, %6 : tensor<256x16x!tt.ptr<bf16>>
    ^
within split at /home/nhat/github/triton_shared/test/Conversion/StructuredToMemref/reducemax_32_256_bf16.mlir:1 offset :37:5: note: see current operation: tt.store %arg1, %19 : tensor<256x16x!tt.ptr<bf16>>
"builtin.module"() ({
  "tt.func"() <{function_type = (!tt.ptr<bf16>, tensor<256x16x!tt.ptr<bf16>>) -> (), sym_name = "kernel"}> ({
  ^bb0(%arg0: !tt.ptr<bf16>, %arg1: tensor<256x16x!tt.ptr<bf16>>):
    %0 = "arith.constant"() <{value = dense<0> : tensor<256x16xi32>}> : () -> tensor<256x16xi32>
    %1 = "arith.constant"() <{value = 0 : i32}> : () -> i32
    %2 = "arith.constant"() <{value = 256 : index}> : () -> index
    %3 = "tts.make_tptr"(%arg0, %2) <{operandSegmentSizes = array<i32: 1, 1, 0, 0>, order = array<i32>, sizes = array<i64: 32, 256, 16>, static_offsets = array<i64: 0, 0, 0>, static_shape = array<i64: 0, 0, 0>, static_strides = array<i64: -9223372036854775808, 1, 1>}> : (!tt.ptr<bf16>, index) -> tensor<32x256x16x!tt.ptr<bf16>>
    %4 = "tts.load"(%3) <{operandSegmentSizes = array<i32: 1, 0, 0>, static_mask_dims = array<i64>}> : (tensor<32x256x16x!tt.ptr<bf16>>) -> tensor<32x256x16xbf16>
    %5 = "tt.reduce"(%4) <{axis = 0 : i32}> ({
    ^bb0(%arg2: bf16, %arg3: bf16):
      %6 = "arith.cmpf"(%arg2, %arg3) <{fastmath = #arith.fastmath<none>, predicate = 2 : i64}> : (bf16, bf16) -> i1
      %7 = "arith.select"(%6, %arg2, %arg3) : (i1, bf16, bf16) -> bf16
      "tt.reduce.return"(%7) : (bf16) -> ()
    }) : (tensor<32x256x16xbf16>) -> tensor<256x16xbf16>
    "tt.store"(%0, %5) <{boundaryCheck = array<i32>, cache = 1 : i32, evict = 1 : i32}> : (tensor<256x16xi32>, tensor<256x16xbf16>) -> ()
    "tt.return"() : () -> ()
  }) : () -> ()
}) : () -> ()
processing val
%1 = "arith.constant"() <{value = 0 : i32}> : () -> i32
these are the uses:
actual processing
~~~~
processing val
%0 = "arith.constant"() <{value = dense<0> : tensor<256x16xi32>}> : () -> tensor<256x16xi32>
these are the uses:
"tt.store"(%0, %5) <{boundaryCheck = array<i32>, cache = 1 : i32, evict = 1 : i32}> : (tensor<256x16xi32>, tensor<256x16xbf16>) -> ()
actual processing
processing user
"tt.store"(%0, %5) <{boundaryCheck = array<i32>, cache = 1 : i32, evict = 1 : i32}> : (tensor<256x16xi32>, tensor<256x16xbf16>) -> ()
tensor<256x16x!tt.ptr<bf16>>
~~~~
"builtin.module"() ({
  "tt.func"() <{function_type = (!tt.ptr<bf16>, tensor<256x16x!tt.ptr<bf16>>) -> (), sym_name = "kernel"}> ({
  ^bb0(%arg0: !tt.ptr<bf16>, %arg1: tensor<256x16x!tt.ptr<bf16>>):
    %0 = "arith.constant"() <{value = dense<0> : tensor<256x16xi32>}> : () -> tensor<256x16xi32>
    %1 = "arith.constant"() <{value = 0 : i32}> : () -> i32
    %2 = "arith.constant"() <{value = 256 : index}> : () -> index
    %3 = "tts.make_tptr"(%arg0, %2) <{operandSegmentSizes = array<i32: 1, 1, 0, 0>, order = array<i32>, sizes = array<i64: 32, 256, 16>, static_offsets = array<i64: 0, 0, 0>, static_shape = array<i64: 0, 0, 0>, static_strides = array<i64: -9223372036854775808, 1, 1>}> : (!tt.ptr<bf16>, index) -> tensor<32x256x16x!tt.ptr<bf16>>
    %4 = "tts.load"(%3) <{operandSegmentSizes = array<i32: 1, 0, 0>, static_mask_dims = array<i64>}> : (tensor<32x256x16x!tt.ptr<bf16>>) -> tensor<32x256x16xbf16>
    %5 = "tt.reduce"(%4) <{axis = 0 : i32}> ({
    ^bb0(%arg2: bf16, %arg3: bf16):
      %7 = "arith.cmpf"(%arg2, %arg3) <{fastmath = #arith.fastmath<none>, predicate = 2 : i64}> : (bf16, bf16) -> i1
      %8 = "arith.select"(%7, %arg2, %arg3) : (i1, bf16, bf16) -> bf16
      "tt.reduce.return"(%8) : (bf16) -> ()
    }) : (tensor<32x256x16xbf16>) -> tensor<256x16xbf16>
    %6 = "tts.create_ptr"(%arg1, %0) : (tensor<256x16x!tt.ptr<bf16>>, tensor<256x16xi32>) -> tensor<256x16x!tt.ptr<bf16>>
    "tt.store"(%0, %5) <{boundaryCheck = array<i32>, cache = 1 : i32, evict = 1 : i32}> : (tensor<256x16xi32>, tensor<256x16xbf16>) -> ()
    "tt.return"() : () -> ()
  }) : () -> ()
}) : () -> ()
total addptr count: 0
"builtin.module"() ({
  "func.func"() <{function_type = (!tt.ptr<bf16>, tensor<256x16x!tt.ptr<bf16>>, i32, i32, i32, i32, i32, i32) -> (), sym_name = "kernel"}> ({
  ^bb0(%arg0: !tt.ptr<bf16>, %arg1: tensor<256x16x!tt.ptr<bf16>>, %arg2: i32, %arg3: i32, %arg4: i32, %arg5: i32, %arg6: i32, %arg7: i32):
    %0 = "arith.constant"() <{value = 0 : i32}> : () -> i32
    %1 = "tensor.empty"() : () -> tensor<256x16xi32>
    %2 = "linalg.fill"(%0, %1) <{operandSegmentSizes = array<i32: 1, 1>}> ({
    ^bb0(%arg12: i32, %arg13: i32):
      "linalg.yield"(%arg12) : (i32) -> ()
    }) : (i32, tensor<256x16xi32>) -> tensor<256x16xi32>
    %3 = "arith.constant"() <{value = 256 : index}> : () -> index
    %4 = "builtin.unrealized_conversion_cast"(%arg0) : (!tt.ptr<bf16>) -> memref<*xbf16>
    %5 = "tts.make_tptr"(%4, %3) <{operandSegmentSizes = array<i32: 1, 1, 0, 0>, order = array<i32>, sizes = array<i64: 32, 256, 16>, static_offsets = array<i64: 0, 0, 0>, static_shape = array<i64: 0, 0, 0>, static_strides = array<i64: -9223372036854775808, 1, 1>}> : (memref<*xbf16>, index) -> tensor<32x256x16x!tt.ptr<bf16>>
    %6 = "tts.load"(%5) <{operandSegmentSizes = array<i32: 1, 0, 0>, static_mask_dims = array<i64>}> : (tensor<32x256x16x!tt.ptr<bf16>>) -> tensor<32x256x16xbf16>
    %7 = "arith.constant"() <{value = 0xFF80 : bf16}> : () -> bf16
    %8 = "tensor.empty"() : () -> tensor<256x16xbf16>
    %9 = "linalg.fill"(%7, %8) <{operandSegmentSizes = array<i32: 1, 1>}> ({
    ^bb0(%arg10: bf16, %arg11: bf16):
      "linalg.yield"(%arg10) : (bf16) -> ()
    }) : (bf16, tensor<256x16xbf16>) -> tensor<256x16xbf16>
    %10 = "linalg.reduce"(%6, %9) <{dimensions = array<i64: 0>}> ({
    ^bb0(%arg8: bf16, %arg9: bf16):
      %12 = "arith.maximumf"(%arg8, %arg9) <{fastmath = #arith.fastmath<none>}> : (bf16, bf16) -> bf16
      "linalg.yield"(%12) : (bf16) -> ()
    }) : (tensor<32x256x16xbf16>, tensor<256x16xbf16>) -> tensor<256x16xbf16>
    %11 = "tts.create_ptr"(%arg1, %2) : (tensor<256x16x!tt.ptr<bf16>>, tensor<256x16xi32>) -> tensor<256x16x!tt.ptr<bf16>>
    "tt.store"(%11, %10) <{boundaryCheck = array<i32>, cache = 1 : i32, evict = 1 : i32}> : (tensor<256x16x!tt.ptr<bf16>>, tensor<256x16xbf16>) -> ()
    "func.return"() : () -> ()
  }) : () -> ()
}) : () -> ()
within split at /home/nhat/github/triton_shared/test/Conversion/StructuredToMemref/reducemax_32_256_bf16.mlir:1 offset :37:5: error: 'memref.cast' op operand #0 must be ranked or unranked memref of any type values, but got 'tensor<256x16x!tt.ptr<bf16>>'
    tt.store %res, %6 : tensor<256x16x!tt.ptr<bf16>>
    ^
within split at /home/nhat/github/triton_shared/test/Conversion/StructuredToMemref/reducemax_32_256_bf16.mlir:1 offset :37:5: note: see current operation: %12 = "memref.cast"(%arg1) : (tensor<256x16x!tt.ptr<bf16>>) -> memref<?xbf16>
FileCheck error: '<stdin>' is empty.
FileCheck command line:  FileCheck /home/nhat/github/triton_shared/test/Conversion/StructuredToMemref/reducemax_32_256_bf16.mlir

--

********************
FAIL: TRITON-SHARED :: Conversion/StructuredToMemref/convert_2d_elemwise_arith_unary.mlir (7 of 215)
******************** TEST 'TRITON-SHARED :: Conversion/StructuredToMemref/convert_2d_elemwise_arith_unary.mlir' FAILED ********************
Exit Code: 2

Command Output (stderr):
--
RUN: at line 1: /home/nhat/github/triton_shared/triton/python/build/cmake.linux-x86_64-cpython-3.8/third_party/triton_shared/tools/triton-shared-opt/triton-shared-opt --split-input-file --triton-to-linalg-experimental /home/nhat/github/triton_shared/test/Conversion/StructuredToMemref/convert_2d_elemwise_arith_unary.mlir | FileCheck /home/nhat/github/triton_shared/test/Conversion/StructuredToMemref/convert_2d_elemwise_arith_unary.mlir
+ /home/nhat/github/triton_shared/triton/python/build/cmake.linux-x86_64-cpython-3.8/third_party/triton_shared/tools/triton-shared-opt/triton-shared-opt --split-input-file --triton-to-linalg-experimental /home/nhat/github/triton_shared/test/Conversion/StructuredToMemref/convert_2d_elemwise_arith_unary.mlir
+ FileCheck /home/nhat/github/triton_shared/test/Conversion/StructuredToMemref/convert_2d_elemwise_arith_unary.mlir
within split at /home/nhat/github/triton_shared/test/Conversion/StructuredToMemref/convert_2d_elemwise_arith_unary.mlir:1 offset :38:5: remark: PtrAnalysis: pointer is not replace with tts.make_tptr so storeOp cannot be rewritten
    tt.store %save0, %5 : tensor<128x128x!tt.ptr<bf16>>
    ^
within split at /home/nhat/github/triton_shared/test/Conversion/StructuredToMemref/convert_2d_elemwise_arith_unary.mlir:1 offset :38:5: note: see current operation: tt.store %arg3, %19 : tensor<128x128x!tt.ptr<bf16>>
within split at /home/nhat/github/triton_shared/test/Conversion/StructuredToMemref/convert_2d_elemwise_arith_unary.mlir:1 offset :38:5: remark: PtrAnalysis: Failed to rewrite StoreOp
    tt.store %save0, %5 : tensor<128x128x!tt.ptr<bf16>>
    ^
within split at /home/nhat/github/triton_shared/test/Conversion/StructuredToMemref/convert_2d_elemwise_arith_unary.mlir:1 offset :38:5: note: see current operation: tt.store %arg3, %19 : tensor<128x128x!tt.ptr<bf16>>
within split at /home/nhat/github/triton_shared/test/Conversion/StructuredToMemref/convert_2d_elemwise_arith_unary.mlir:1 offset :39:5: remark: PtrAnalysis: pointer is not replace with tts.make_tptr so storeOp cannot be rewritten
    tt.store %save1, %6 : tensor<128x128x!tt.ptr<f32>>
    ^
within split at /home/nhat/github/triton_shared/test/Conversion/StructuredToMemref/convert_2d_elemwise_arith_unary.mlir:1 offset :39:5: note: see current operation: tt.store %arg4, %20 : tensor<128x128x!tt.ptr<f32>>
within split at /home/nhat/github/triton_shared/test/Conversion/StructuredToMemref/convert_2d_elemwise_arith_unary.mlir:1 offset :39:5: remark: PtrAnalysis: Failed to rewrite StoreOp
    tt.store %save1, %6 : tensor<128x128x!tt.ptr<f32>>
    ^
within split at /home/nhat/github/triton_shared/test/Conversion/StructuredToMemref/convert_2d_elemwise_arith_unary.mlir:1 offset :39:5: note: see current operation: tt.store %arg4, %20 : tensor<128x128x!tt.ptr<f32>>
within split at /home/nhat/github/triton_shared/test/Conversion/StructuredToMemref/convert_2d_elemwise_arith_unary.mlir:1 offset :40:5: remark: PtrAnalysis: pointer is not replace with tts.make_tptr so storeOp cannot be rewritten
    tt.store %save2, %7 : tensor<128x128x!tt.ptr<f32>>
    ^
within split at /home/nhat/github/triton_shared/test/Conversion/StructuredToMemref/convert_2d_elemwise_arith_unary.mlir:1 offset :40:5: note: see current operation: tt.store %arg5, %21 : tensor<128x128x!tt.ptr<f32>>
within split at /home/nhat/github/triton_shared/test/Conversion/StructuredToMemref/convert_2d_elemwise_arith_unary.mlir:1 offset :40:5: remark: PtrAnalysis: Failed to rewrite StoreOp
    tt.store %save2, %7 : tensor<128x128x!tt.ptr<f32>>
    ^
within split at /home/nhat/github/triton_shared/test/Conversion/StructuredToMemref/convert_2d_elemwise_arith_unary.mlir:1 offset :40:5: note: see current operation: tt.store %arg5, %21 : tensor<128x128x!tt.ptr<f32>>
within split at /home/nhat/github/triton_shared/test/Conversion/StructuredToMemref/convert_2d_elemwise_arith_unary.mlir:1 offset :41:5: remark: PtrAnalysis: pointer is not replace with tts.make_tptr so storeOp cannot be rewritten
    tt.store %save3, %10 : tensor<128x128x!tt.ptr<f32>>
    ^
within split at /home/nhat/github/triton_shared/test/Conversion/StructuredToMemref/convert_2d_elemwise_arith_unary.mlir:1 offset :41:5: note: see current operation: tt.store %arg6, %22 : tensor<128x128x!tt.ptr<f32>>
within split at /home/nhat/github/triton_shared/test/Conversion/StructuredToMemref/convert_2d_elemwise_arith_unary.mlir:1 offset :41:5: remark: PtrAnalysis: Failed to rewrite StoreOp
    tt.store %save3, %10 : tensor<128x128x!tt.ptr<f32>>
    ^
within split at /home/nhat/github/triton_shared/test/Conversion/StructuredToMemref/convert_2d_elemwise_arith_unary.mlir:1 offset :41:5: note: see current operation: tt.store %arg6, %22 : tensor<128x128x!tt.ptr<f32>>
within split at /home/nhat/github/triton_shared/test/Conversion/StructuredToMemref/convert_2d_elemwise_arith_unary.mlir:1 offset :42:5: remark: PtrAnalysis: pointer is not replace with tts.make_tptr so storeOp cannot be rewritten
    tt.store %save4, %11 : tensor<128x128x!tt.ptr<f32>>
    ^
within split at /home/nhat/github/triton_shared/test/Conversion/StructuredToMemref/convert_2d_elemwise_arith_unary.mlir:1 offset :42:5: note: see current operation: tt.store %arg7, %23 : tensor<128x128x!tt.ptr<f32>>
within split at /home/nhat/github/triton_shared/test/Conversion/StructuredToMemref/convert_2d_elemwise_arith_unary.mlir:1 offset :42:5: remark: PtrAnalysis: Failed to rewrite StoreOp
    tt.store %save4, %11 : tensor<128x128x!tt.ptr<f32>>
    ^
within split at /home/nhat/github/triton_shared/test/Conversion/StructuredToMemref/convert_2d_elemwise_arith_unary.mlir:1 offset :42:5: note: see current operation: tt.store %arg7, %23 : tensor<128x128x!tt.ptr<f32>>
"builtin.module"() ({
  "tt.func"() <{function_type = (!tt.ptr<f32>, !tt.ptr<i32>, !tt.ptr<f16>, tensor<128x128x!tt.ptr<bf16>>, tensor<128x128x!tt.ptr<f32>>, tensor<128x128x!tt.ptr<f32>>, tensor<128x128x!tt.ptr<f32>>, tensor<128x128x!tt.ptr<f32>>) -> (), sym_name = "kernel"}> ({
  ^bb0(%arg0: !tt.ptr<f32>, %arg1: !tt.ptr<i32>, %arg2: !tt.ptr<f16>, %arg3: tensor<128x128x!tt.ptr<bf16>>, %arg4: tensor<128x128x!tt.ptr<f32>>, %arg5: tensor<128x128x!tt.ptr<f32>>, %arg6: tensor<128x128x!tt.ptr<f32>>, %arg7: tensor<128x128x!tt.ptr<f32>>):
    %0 = "arith.constant"() <{value = dense<0> : tensor<128x128xi32>}> : () -> tensor<128x128xi32>
    %1 = "arith.constant"() <{value = dense<0> : tensor<128x128xi32>}> : () -> tensor<128x128xi32>
    %2 = "arith.constant"() <{value = dense<0> : tensor<128x128xi32>}> : () -> tensor<128x128xi32>
    %3 = "arith.constant"() <{value = dense<0> : tensor<128x128xi32>}> : () -> tensor<128x128xi32>
    %4 = "arith.constant"() <{value = dense<0> : tensor<128x128xi32>}> : () -> tensor<128x128xi32>
    %5 = "arith.constant"() <{value = 0 : i32}> : () -> i32
    %6 = "arith.constant"() <{value = 0 : i32}> : () -> i32
    %7 = "arith.constant"() <{value = 0 : i32}> : () -> i32
    %8 = "tts.make_tptr"(%arg0) <{operandSegmentSizes = array<i32: 1, 0, 0, 0>, order = array<i32>, sizes = array<i64: 128, 128>, static_offsets = array<i64: 0, 0>, static_shape = array<i64: 0, 0>, static_strides = array<i64: 1, 1>}> : (!tt.ptr<f32>) -> tensor<128x128x!tt.ptr<f32>>
    %9 = "tts.make_tptr"(%arg1) <{operandSegmentSizes = array<i32: 1, 0, 0, 0>, order = array<i32>, sizes = array<i64: 128, 128>, static_offsets = array<i64: 0, 0>, static_shape = array<i64: 0, 0>, static_strides = array<i64: 1, 1>}> : (!tt.ptr<i32>) -> tensor<128x128x!tt.ptr<i32>>
    %10 = "tts.make_tptr"(%arg2) <{operandSegmentSizes = array<i32: 1, 0, 0, 0>, order = array<i32>, sizes = array<i64: 128, 128>, static_offsets = array<i64: 0, 0>, static_shape = array<i64: 0, 0>, static_strides = array<i64: 1, 1>}> : (!tt.ptr<f16>) -> tensor<128x128x!tt.ptr<f16>>
    %11 = "tts.load"(%8) <{operandSegmentSizes = array<i32: 1, 0, 0>, static_mask_dims = array<i64>}> : (tensor<128x128x!tt.ptr<f32>>) -> tensor<128x128xf32>
    %12 = "tts.load"(%9) <{operandSegmentSizes = array<i32: 1, 0, 0>, static_mask_dims = array<i64>}> : (tensor<128x128x!tt.ptr<i32>>) -> tensor<128x128xi32>
    %13 = "tts.load"(%10) <{operandSegmentSizes = array<i32: 1, 0, 0>, static_mask_dims = array<i64>}> : (tensor<128x128x!tt.ptr<f16>>) -> tensor<128x128xf16>
    %14 = "arith.truncf"(%11) : (tensor<128x128xf32>) -> tensor<128x128xbf16>
    %15 = "math.exp"(%11) <{fastmath = #arith.fastmath<none>}> : (tensor<128x128xf32>) -> tensor<128x128xf32>
    %16 = "arith.sitofp"(%12) : (tensor<128x128xi32>) -> tensor<128x128xf32>
    %17 = "arith.extf"(%13) : (tensor<128x128xf16>) -> tensor<128x128xf32>
    %18 = "math.sqrt"(%11) <{fastmath = #arith.fastmath<none>}> : (tensor<128x128xf32>) -> tensor<128x128xf32>
    "tt.store"(%4, %14) <{boundaryCheck = array<i32>, cache = 1 : i32, evict = 1 : i32}> : (tensor<128x128xi32>, tensor<128x128xbf16>) -> ()
    "tt.store"(%3, %15) <{boundaryCheck = array<i32>, cache = 1 : i32, evict = 1 : i32}> : (tensor<128x128xi32>, tensor<128x128xf32>) -> ()
    "tt.store"(%2, %16) <{boundaryCheck = array<i32>, cache = 1 : i32, evict = 1 : i32}> : (tensor<128x128xi32>, tensor<128x128xf32>) -> ()
    "tt.store"(%1, %17) <{boundaryCheck = array<i32>, cache = 1 : i32, evict = 1 : i32}> : (tensor<128x128xi32>, tensor<128x128xf32>) -> ()
    "tt.store"(%0, %18) <{boundaryCheck = array<i32>, cache = 1 : i32, evict = 1 : i32}> : (tensor<128x128xi32>, tensor<128x128xf32>) -> ()
    "tt.return"() : () -> ()
  }) : () -> ()
}) : () -> ()
processing val
%7 = "arith.constant"() <{value = 0 : i32}> : () -> i32
these are the uses:
actual processing
~~~~
processing val
%6 = "arith.constant"() <{value = 0 : i32}> : () -> i32
these are the uses:
actual processing
~~~~
processing val
%5 = "arith.constant"() <{value = 0 : i32}> : () -> i32
these are the uses:
actual processing
~~~~
processing val
%4 = "arith.constant"() <{value = dense<0> : tensor<128x128xi32>}> : () -> tensor<128x128xi32>
these are the uses:
"tt.store"(%4, %14) <{boundaryCheck = array<i32>, cache = 1 : i32, evict = 1 : i32}> : (tensor<128x128xi32>, tensor<128x128xbf16>) -> ()
actual processing
processing user
"tt.store"(%4, %14) <{boundaryCheck = array<i32>, cache = 1 : i32, evict = 1 : i32}> : (tensor<128x128xi32>, tensor<128x128xbf16>) -> ()
tensor<128x128x!tt.ptr<bf16>>
~~~~
processing val
%3 = "arith.constant"() <{value = dense<0> : tensor<128x128xi32>}> : () -> tensor<128x128xi32>
these are the uses:
"tt.store"(%3, %15) <{boundaryCheck = array<i32>, cache = 1 : i32, evict = 1 : i32}> : (tensor<128x128xi32>, tensor<128x128xf32>) -> ()
actual processing
processing user
"tt.store"(%3, %15) <{boundaryCheck = array<i32>, cache = 1 : i32, evict = 1 : i32}> : (tensor<128x128xi32>, tensor<128x128xf32>) -> ()
tensor<128x128x!tt.ptr<f32>>
~~~~
processing val
%2 = "arith.constant"() <{value = dense<0> : tensor<128x128xi32>}> : () -> tensor<128x128xi32>
these are the uses:
"tt.store"(%2, %16) <{boundaryCheck = array<i32>, cache = 1 : i32, evict = 1 : i32}> : (tensor<128x128xi32>, tensor<128x128xf32>) -> ()
actual processing
processing user
"tt.store"(%2, %16) <{boundaryCheck = array<i32>, cache = 1 : i32, evict = 1 : i32}> : (tensor<128x128xi32>, tensor<128x128xf32>) -> ()
tensor<128x128x!tt.ptr<f32>>
~~~~
processing val
%1 = "arith.constant"() <{value = dense<0> : tensor<128x128xi32>}> : () -> tensor<128x128xi32>
these are the uses:
"tt.store"(%1, %17) <{boundaryCheck = array<i32>, cache = 1 : i32, evict = 1 : i32}> : (tensor<128x128xi32>, tensor<128x128xf32>) -> ()
actual processing
processing user
"tt.store"(%1, %17) <{boundaryCheck = array<i32>, cache = 1 : i32, evict = 1 : i32}> : (tensor<128x128xi32>, tensor<128x128xf32>) -> ()
tensor<128x128x!tt.ptr<f32>>
~~~~
processing val
%0 = "arith.constant"() <{value = dense<0> : tensor<128x128xi32>}> : () -> tensor<128x128xi32>
these are the uses:
"tt.store"(%0, %18) <{boundaryCheck = array<i32>, cache = 1 : i32, evict = 1 : i32}> : (tensor<128x128xi32>, tensor<128x128xf32>) -> ()
actual processing
processing user
"tt.store"(%0, %18) <{boundaryCheck = array<i32>, cache = 1 : i32, evict = 1 : i32}> : (tensor<128x128xi32>, tensor<128x128xf32>) -> ()
tensor<128x128x!tt.ptr<f32>>
~~~~
"builtin.module"() ({
  "tt.func"() <{function_type = (!tt.ptr<f32>, !tt.ptr<i32>, !tt.ptr<f16>, tensor<128x128x!tt.ptr<bf16>>, tensor<128x128x!tt.ptr<f32>>, tensor<128x128x!tt.ptr<f32>>, tensor<128x128x!tt.ptr<f32>>, tensor<128x128x!tt.ptr<f32>>) -> (), sym_name = "kernel"}> ({
  ^bb0(%arg0: !tt.ptr<f32>, %arg1: !tt.ptr<i32>, %arg2: !tt.ptr<f16>, %arg3: tensor<128x128x!tt.ptr<bf16>>, %arg4: tensor<128x128x!tt.ptr<f32>>, %arg5: tensor<128x128x!tt.ptr<f32>>, %arg6: tensor<128x128x!tt.ptr<f32>>, %arg7: tensor<128x128x!tt.ptr<f32>>):
    %0 = "arith.constant"() <{value = dense<0> : tensor<128x128xi32>}> : () -> tensor<128x128xi32>
    %1 = "arith.constant"() <{value = dense<0> : tensor<128x128xi32>}> : () -> tensor<128x128xi32>
    %2 = "arith.constant"() <{value = dense<0> : tensor<128x128xi32>}> : () -> tensor<128x128xi32>
    %3 = "arith.constant"() <{value = dense<0> : tensor<128x128xi32>}> : () -> tensor<128x128xi32>
    %4 = "arith.constant"() <{value = dense<0> : tensor<128x128xi32>}> : () -> tensor<128x128xi32>
    %5 = "arith.constant"() <{value = 0 : i32}> : () -> i32
    %6 = "arith.constant"() <{value = 0 : i32}> : () -> i32
    %7 = "arith.constant"() <{value = 0 : i32}> : () -> i32
    %8 = "tts.make_tptr"(%arg0) <{operandSegmentSizes = array<i32: 1, 0, 0, 0>, order = array<i32>, sizes = array<i64: 128, 128>, static_offsets = array<i64: 0, 0>, static_shape = array<i64: 0, 0>, static_strides = array<i64: 1, 1>}> : (!tt.ptr<f32>) -> tensor<128x128x!tt.ptr<f32>>
    %9 = "tts.make_tptr"(%arg1) <{operandSegmentSizes = array<i32: 1, 0, 0, 0>, order = array<i32>, sizes = array<i64: 128, 128>, static_offsets = array<i64: 0, 0>, static_shape = array<i64: 0, 0>, static_strides = array<i64: 1, 1>}> : (!tt.ptr<i32>) -> tensor<128x128x!tt.ptr<i32>>
    %10 = "tts.make_tptr"(%arg2) <{operandSegmentSizes = array<i32: 1, 0, 0, 0>, order = array<i32>, sizes = array<i64: 128, 128>, static_offsets = array<i64: 0, 0>, static_shape = array<i64: 0, 0>, static_strides = array<i64: 1, 1>}> : (!tt.ptr<f16>) -> tensor<128x128x!tt.ptr<f16>>
    %11 = "tts.load"(%8) <{operandSegmentSizes = array<i32: 1, 0, 0>, static_mask_dims = array<i64>}> : (tensor<128x128x!tt.ptr<f32>>) -> tensor<128x128xf32>
    %12 = "tts.load"(%9) <{operandSegmentSizes = array<i32: 1, 0, 0>, static_mask_dims = array<i64>}> : (tensor<128x128x!tt.ptr<i32>>) -> tensor<128x128xi32>
    %13 = "tts.load"(%10) <{operandSegmentSizes = array<i32: 1, 0, 0>, static_mask_dims = array<i64>}> : (tensor<128x128x!tt.ptr<f16>>) -> tensor<128x128xf16>
    %14 = "arith.truncf"(%11) : (tensor<128x128xf32>) -> tensor<128x128xbf16>
    %15 = "math.exp"(%11) <{fastmath = #arith.fastmath<none>}> : (tensor<128x128xf32>) -> tensor<128x128xf32>
    %16 = "arith.sitofp"(%12) : (tensor<128x128xi32>) -> tensor<128x128xf32>
    %17 = "arith.extf"(%13) : (tensor<128x128xf16>) -> tensor<128x128xf32>
    %18 = "math.sqrt"(%11) <{fastmath = #arith.fastmath<none>}> : (tensor<128x128xf32>) -> tensor<128x128xf32>
    %19 = "tts.create_ptr"(%arg3, %4) : (tensor<128x128x!tt.ptr<bf16>>, tensor<128x128xi32>) -> tensor<128x128x!tt.ptr<bf16>>
    "tt.store"(%4, %14) <{boundaryCheck = array<i32>, cache = 1 : i32, evict = 1 : i32}> : (tensor<128x128xi32>, tensor<128x128xbf16>) -> ()
    %20 = "tts.create_ptr"(%arg4, %3) : (tensor<128x128x!tt.ptr<f32>>, tensor<128x128xi32>) -> tensor<128x128x!tt.ptr<f32>>
    "tt.store"(%3, %15) <{boundaryCheck = array<i32>, cache = 1 : i32, evict = 1 : i32}> : (tensor<128x128xi32>, tensor<128x128xf32>) -> ()
    %21 = "tts.create_ptr"(%arg5, %2) : (tensor<128x128x!tt.ptr<f32>>, tensor<128x128xi32>) -> tensor<128x128x!tt.ptr<f32>>
    "tt.store"(%2, %16) <{boundaryCheck = array<i32>, cache = 1 : i32, evict = 1 : i32}> : (tensor<128x128xi32>, tensor<128x128xf32>) -> ()
    %22 = "tts.create_ptr"(%arg6, %1) : (tensor<128x128x!tt.ptr<f32>>, tensor<128x128xi32>) -> tensor<128x128x!tt.ptr<f32>>
    "tt.store"(%1, %17) <{boundaryCheck = array<i32>, cache = 1 : i32, evict = 1 : i32}> : (tensor<128x128xi32>, tensor<128x128xf32>) -> ()
    %23 = "tts.create_ptr"(%arg7, %0) : (tensor<128x128x!tt.ptr<f32>>, tensor<128x128xi32>) -> tensor<128x128x!tt.ptr<f32>>
    "tt.store"(%0, %18) <{boundaryCheck = array<i32>, cache = 1 : i32, evict = 1 : i32}> : (tensor<128x128xi32>, tensor<128x128xf32>) -> ()
    "tt.return"() : () -> ()
  }) : () -> ()
}) : () -> ()
total addptr count: 0
"builtin.module"() ({
  "func.func"() <{function_type = (!tt.ptr<f32>, !tt.ptr<i32>, !tt.ptr<f16>, tensor<128x128x!tt.ptr<bf16>>, tensor<128x128x!tt.ptr<f32>>, tensor<128x128x!tt.ptr<f32>>, tensor<128x128x!tt.ptr<f32>>, tensor<128x128x!tt.ptr<f32>>, i32, i32, i32, i32, i32, i32) -> (), sym_name = "kernel"}> ({
  ^bb0(%arg0: !tt.ptr<f32>, %arg1: !tt.ptr<i32>, %arg2: !tt.ptr<f16>, %arg3: tensor<128x128x!tt.ptr<bf16>>, %arg4: tensor<128x128x!tt.ptr<f32>>, %arg5: tensor<128x128x!tt.ptr<f32>>, %arg6: tensor<128x128x!tt.ptr<f32>>, %arg7: tensor<128x128x!tt.ptr<f32>>, %arg8: i32, %arg9: i32, %arg10: i32, %arg11: i32, %arg12: i32, %arg13: i32):
    %0 = "arith.constant"() <{value = 0 : i32}> : () -> i32
    %1 = "tensor.empty"() : () -> tensor<128x128xi32>
    %2 = "linalg.fill"(%0, %1) <{operandSegmentSizes = array<i32: 1, 1>}> ({
    ^bb0(%arg24: i32, %arg25: i32):
      "linalg.yield"(%arg24) : (i32) -> ()
    }) : (i32, tensor<128x128xi32>) -> tensor<128x128xi32>
    %3 = "builtin.unrealized_conversion_cast"(%arg0) : (!tt.ptr<f32>) -> memref<*xf32>
    %4 = "tts.make_tptr"(%3) <{operandSegmentSizes = array<i32: 1, 0, 0, 0>, order = array<i32>, sizes = array<i64: 128, 128>, static_offsets = array<i64: 0, 0>, static_shape = array<i64: 0, 0>, static_strides = array<i64: 1, 1>}> : (memref<*xf32>) -> tensor<128x128x!tt.ptr<f32>>
    %5 = "builtin.unrealized_conversion_cast"(%arg1) : (!tt.ptr<i32>) -> memref<*xi32>
    %6 = "tts.make_tptr"(%5) <{operandSegmentSizes = array<i32: 1, 0, 0, 0>, order = array<i32>, sizes = array<i64: 128, 128>, static_offsets = array<i64: 0, 0>, static_shape = array<i64: 0, 0>, static_strides = array<i64: 1, 1>}> : (memref<*xi32>) -> tensor<128x128x!tt.ptr<i32>>
    %7 = "builtin.unrealized_conversion_cast"(%arg2) : (!tt.ptr<f16>) -> memref<*xf16>
    %8 = "tts.make_tptr"(%7) <{operandSegmentSizes = array<i32: 1, 0, 0, 0>, order = array<i32>, sizes = array<i64: 128, 128>, static_offsets = array<i64: 0, 0>, static_shape = array<i64: 0, 0>, static_strides = array<i64: 1, 1>}> : (memref<*xf16>) -> tensor<128x128x!tt.ptr<f16>>
    %9 = "tts.load"(%4) <{operandSegmentSizes = array<i32: 1, 0, 0>, static_mask_dims = array<i64>}> : (tensor<128x128x!tt.ptr<f32>>) -> tensor<128x128xf32>
    %10 = "tts.load"(%6) <{operandSegmentSizes = array<i32: 1, 0, 0>, static_mask_dims = array<i64>}> : (tensor<128x128x!tt.ptr<i32>>) -> tensor<128x128xi32>
    %11 = "tts.load"(%8) <{operandSegmentSizes = array<i32: 1, 0, 0>, static_mask_dims = array<i64>}> : (tensor<128x128x!tt.ptr<f16>>) -> tensor<128x128xf16>
    %12 = "tensor.empty"() : () -> tensor<128x128xbf16>
    %13 = "linalg.generic"(%9, %12) <{indexing_maps = [affine_map<(d0, d1) -> (d0, d1)>, affine_map<(d0, d1) -> (d0, d1)>], iterator_types = [#linalg.iterator_type<parallel>, #linalg.iterator_type<parallel>], operandSegmentSizes = array<i32: 1, 1>}> ({
    ^bb0(%arg22: f32, %arg23: bf16):
      %29 = "arith.truncf"(%arg22) : (f32) -> bf16
      "linalg.yield"(%29) : (bf16) -> ()
    }) : (tensor<128x128xf32>, tensor<128x128xbf16>) -> tensor<128x128xbf16>
    %14 = "linalg.generic"(%9, %9) <{indexing_maps = [affine_map<(d0, d1) -> (d0, d1)>, affine_map<(d0, d1) -> (d0, d1)>], iterator_types = [#linalg.iterator_type<parallel>, #linalg.iterator_type<parallel>], operandSegmentSizes = array<i32: 1, 1>}> ({
    ^bb0(%arg20: f32, %arg21: f32):
      %28 = "math.exp"(%arg20) <{fastmath = #arith.fastmath<none>}> : (f32) -> f32
      "linalg.yield"(%28) : (f32) -> ()
    }) : (tensor<128x128xf32>, tensor<128x128xf32>) -> tensor<128x128xf32>
    %15 = "tensor.empty"() : () -> tensor<128x128xf32>
    %16 = "linalg.generic"(%10, %15) <{indexing_maps = [affine_map<(d0, d1) -> (d0, d1)>, affine_map<(d0, d1) -> (d0, d1)>], iterator_types = [#linalg.iterator_type<parallel>, #linalg.iterator_type<parallel>], operandSegmentSizes = array<i32: 1, 1>}> ({
    ^bb0(%arg18: i32, %arg19: f32):
      %27 = "arith.sitofp"(%arg18) : (i32) -> f32
      "linalg.yield"(%27) : (f32) -> ()
    }) : (tensor<128x128xi32>, tensor<128x128xf32>) -> tensor<128x128xf32>
    %17 = "tensor.empty"() : () -> tensor<128x128xf32>
    %18 = "linalg.generic"(%11, %17) <{indexing_maps = [affine_map<(d0, d1) -> (d0, d1)>, affine_map<(d0, d1) -> (d0, d1)>], iterator_types = [#linalg.iterator_type<parallel>, #linalg.iterator_type<parallel>], operandSegmentSizes = array<i32: 1, 1>}> ({
    ^bb0(%arg16: f16, %arg17: f32):
      %26 = "arith.extf"(%arg16) : (f16) -> f32
      "linalg.yield"(%26) : (f32) -> ()
    }) : (tensor<128x128xf16>, tensor<128x128xf32>) -> tensor<128x128xf32>
    %19 = "linalg.generic"(%9, %9) <{indexing_maps = [affine_map<(d0, d1) -> (d0, d1)>, affine_map<(d0, d1) -> (d0, d1)>], iterator_types = [#linalg.iterator_type<parallel>, #linalg.iterator_type<parallel>], operandSegmentSizes = array<i32: 1, 1>}> ({
    ^bb0(%arg14: f32, %arg15: f32):
      %25 = "math.sqrt"(%arg14) <{fastmath = #arith.fastmath<none>}> : (f32) -> f32
      "linalg.yield"(%25) : (f32) -> ()
    }) : (tensor<128x128xf32>, tensor<128x128xf32>) -> tensor<128x128xf32>
    %20 = "tts.create_ptr"(%arg3, %2) : (tensor<128x128x!tt.ptr<bf16>>, tensor<128x128xi32>) -> tensor<128x128x!tt.ptr<bf16>>
    "tt.store"(%20, %13) <{boundaryCheck = array<i32>, cache = 1 : i32, evict = 1 : i32}> : (tensor<128x128x!tt.ptr<bf16>>, tensor<128x128xbf16>) -> ()
    %21 = "tts.create_ptr"(%arg4, %2) : (tensor<128x128x!tt.ptr<f32>>, tensor<128x128xi32>) -> tensor<128x128x!tt.ptr<f32>>
    "tt.store"(%21, %14) <{boundaryCheck = array<i32>, cache = 1 : i32, evict = 1 : i32}> : (tensor<128x128x!tt.ptr<f32>>, tensor<128x128xf32>) -> ()
    %22 = "tts.create_ptr"(%arg5, %2) : (tensor<128x128x!tt.ptr<f32>>, tensor<128x128xi32>) -> tensor<128x128x!tt.ptr<f32>>
    "tt.store"(%22, %16) <{boundaryCheck = array<i32>, cache = 1 : i32, evict = 1 : i32}> : (tensor<128x128x!tt.ptr<f32>>, tensor<128x128xf32>) -> ()
    %23 = "tts.create_ptr"(%arg6, %2) : (tensor<128x128x!tt.ptr<f32>>, tensor<128x128xi32>) -> tensor<128x128x!tt.ptr<f32>>
    "tt.store"(%23, %18) <{boundaryCheck = array<i32>, cache = 1 : i32, evict = 1 : i32}> : (tensor<128x128x!tt.ptr<f32>>, tensor<128x128xf32>) -> ()
    %24 = "tts.create_ptr"(%arg7, %2) : (tensor<128x128x!tt.ptr<f32>>, tensor<128x128xi32>) -> tensor<128x128x!tt.ptr<f32>>
    "tt.store"(%24, %19) <{boundaryCheck = array<i32>, cache = 1 : i32, evict = 1 : i32}> : (tensor<128x128x!tt.ptr<f32>>, tensor<128x128xf32>) -> ()
    "func.return"() : () -> ()
  }) : () -> ()
}) : () -> ()
within split at /home/nhat/github/triton_shared/test/Conversion/StructuredToMemref/convert_2d_elemwise_arith_unary.mlir:1 offset :38:5: error: 'memref.cast' op operand #0 must be ranked or unranked memref of any type values, but got 'tensor<128x128x!tt.ptr<bf16>>'
    tt.store %save0, %5 : tensor<128x128x!tt.ptr<bf16>>
    ^
within split at /home/nhat/github/triton_shared/test/Conversion/StructuredToMemref/convert_2d_elemwise_arith_unary.mlir:1 offset :38:5: note: see current operation: %23 = "memref.cast"(%arg3) : (tensor<128x128x!tt.ptr<bf16>>) -> memref<?xbf16>
FileCheck error: '<stdin>' is empty.
FileCheck command line:  FileCheck /home/nhat/github/triton_shared/test/Conversion/StructuredToMemref/convert_2d_elemwise_arith_unary.mlir

--

********************
FAIL: TRITON-SHARED :: Conversion/StructuredToMemref/convert_2d_elemwise_arith_ternary.mlir (8 of 215)
******************** TEST 'TRITON-SHARED :: Conversion/StructuredToMemref/convert_2d_elemwise_arith_ternary.mlir' FAILED ********************
Exit Code: 2

Command Output (stderr):
--
RUN: at line 1: /home/nhat/github/triton_shared/triton/python/build/cmake.linux-x86_64-cpython-3.8/third_party/triton_shared/tools/triton-shared-opt/triton-shared-opt --split-input-file --triton-to-linalg-experimental /home/nhat/github/triton_shared/test/Conversion/StructuredToMemref/convert_2d_elemwise_arith_ternary.mlir | FileCheck /home/nhat/github/triton_shared/test/Conversion/StructuredToMemref/convert_2d_elemwise_arith_ternary.mlir
+ FileCheck /home/nhat/github/triton_shared/test/Conversion/StructuredToMemref/convert_2d_elemwise_arith_ternary.mlir
+ /home/nhat/github/triton_shared/triton/python/build/cmake.linux-x86_64-cpython-3.8/third_party/triton_shared/tools/triton-shared-opt/triton-shared-opt --split-input-file --triton-to-linalg-experimental /home/nhat/github/triton_shared/test/Conversion/StructuredToMemref/convert_2d_elemwise_arith_ternary.mlir
within split at /home/nhat/github/triton_shared/test/Conversion/StructuredToMemref/convert_2d_elemwise_arith_ternary.mlir:1 offset :30:9: remark: PtrAnalysis: pointer is not replace with tts.make_tptr so storeOp cannot be rewritten
        tt.store %d, %100 : tensor<128x128x!tt.ptr<f32>>
        ^
within split at /home/nhat/github/triton_shared/test/Conversion/StructuredToMemref/convert_2d_elemwise_arith_ternary.mlir:1 offset :30:9: note: see current operation: tt.store %arg3, %19 : tensor<128x128x!tt.ptr<f32>>
within split at /home/nhat/github/triton_shared/test/Conversion/StructuredToMemref/convert_2d_elemwise_arith_ternary.mlir:1 offset :30:9: remark: PtrAnalysis: Failed to rewrite StoreOp
        tt.store %d, %100 : tensor<128x128x!tt.ptr<f32>>
        ^
within split at /home/nhat/github/triton_shared/test/Conversion/StructuredToMemref/convert_2d_elemwise_arith_ternary.mlir:1 offset :30:9: note: see current operation: tt.store %arg3, %19 : tensor<128x128x!tt.ptr<f32>>
"builtin.module"() ({
  "tt.func"() <{function_type = (!tt.ptr<i1>, !tt.ptr<f32>, !tt.ptr<f32>, tensor<128x128x!tt.ptr<f32>>) -> (), sym_name = "kernel"}> ({
  ^bb0(%arg0: !tt.ptr<i1>, %arg1: !tt.ptr<f32>, %arg2: !tt.ptr<f32>, %arg3: tensor<128x128x!tt.ptr<f32>>):
    %0 = "arith.constant"() <{value = dense<0> : tensor<128x128xi32>}> : () -> tensor<128x128xi32>
    %1 = "arith.constant"() <{value = 0 : i32}> : () -> i32
    %2 = "arith.constant"() <{value = 0 : i32}> : () -> i32
    %3 = "arith.constant"() <{value = 0 : i32}> : () -> i32
    %4 = "tts.make_tptr"(%arg0) <{operandSegmentSizes = array<i32: 1, 0, 0, 0>, order = array<i32>, sizes = array<i64: 128, 128>, static_offsets = array<i64: 0, 0>, static_shape = array<i64: 0, 0>, static_strides = array<i64: 1, 1>}> : (!tt.ptr<i1>) -> tensor<128x128x!tt.ptr<i1>>
    %5 = "tts.make_tptr"(%arg1) <{operandSegmentSizes = array<i32: 1, 0, 0, 0>, order = array<i32>, sizes = array<i64: 128, 128>, static_offsets = array<i64: 0, 0>, static_shape = array<i64: 0, 0>, static_strides = array<i64: 1, 1>}> : (!tt.ptr<f32>) -> tensor<128x128x!tt.ptr<f32>>
    %6 = "tts.make_tptr"(%arg2) <{operandSegmentSizes = array<i32: 1, 0, 0, 0>, order = array<i32>, sizes = array<i64: 128, 128>, static_offsets = array<i64: 0, 0>, static_shape = array<i64: 0, 0>, static_strides = array<i64: 1, 1>}> : (!tt.ptr<f32>) -> tensor<128x128x!tt.ptr<f32>>
    %7 = "tts.load"(%4) <{operandSegmentSizes = array<i32: 1, 0, 0>, static_mask_dims = array<i64>}> : (tensor<128x128x!tt.ptr<i1>>) -> tensor<128x128xi1>
    %8 = "tts.load"(%5) <{operandSegmentSizes = array<i32: 1, 0, 0>, static_mask_dims = array<i64>}> : (tensor<128x128x!tt.ptr<f32>>) -> tensor<128x128xf32>
    %9 = "tts.load"(%6) <{operandSegmentSizes = array<i32: 1, 0, 0>, static_mask_dims = array<i64>}> : (tensor<128x128x!tt.ptr<f32>>) -> tensor<128x128xf32>
    %10 = "arith.select"(%7, %8, %9) : (tensor<128x128xi1>, tensor<128x128xf32>, tensor<128x128xf32>) -> tensor<128x128xf32>
    "tt.store"(%0, %10) <{boundaryCheck = array<i32>, cache = 1 : i32, evict = 1 : i32}> : (tensor<128x128xi32>, tensor<128x128xf32>) -> ()
    "tt.return"() : () -> ()
  }) : () -> ()
}) : () -> ()
processing val
%3 = "arith.constant"() <{value = 0 : i32}> : () -> i32
these are the uses:
actual processing
~~~~
processing val
%2 = "arith.constant"() <{value = 0 : i32}> : () -> i32
these are the uses:
actual processing
~~~~
processing val
%1 = "arith.constant"() <{value = 0 : i32}> : () -> i32
these are the uses:
actual processing
~~~~
processing val
%0 = "arith.constant"() <{value = dense<0> : tensor<128x128xi32>}> : () -> tensor<128x128xi32>
these are the uses:
"tt.store"(%0, %10) <{boundaryCheck = array<i32>, cache = 1 : i32, evict = 1 : i32}> : (tensor<128x128xi32>, tensor<128x128xf32>) -> ()
actual processing
processing user
"tt.store"(%0, %10) <{boundaryCheck = array<i32>, cache = 1 : i32, evict = 1 : i32}> : (tensor<128x128xi32>, tensor<128x128xf32>) -> ()
tensor<128x128x!tt.ptr<f32>>
~~~~
"builtin.module"() ({
  "tt.func"() <{function_type = (!tt.ptr<i1>, !tt.ptr<f32>, !tt.ptr<f32>, tensor<128x128x!tt.ptr<f32>>) -> (), sym_name = "kernel"}> ({
  ^bb0(%arg0: !tt.ptr<i1>, %arg1: !tt.ptr<f32>, %arg2: !tt.ptr<f32>, %arg3: tensor<128x128x!tt.ptr<f32>>):
    %0 = "arith.constant"() <{value = dense<0> : tensor<128x128xi32>}> : () -> tensor<128x128xi32>
    %1 = "arith.constant"() <{value = 0 : i32}> : () -> i32
    %2 = "arith.constant"() <{value = 0 : i32}> : () -> i32
    %3 = "arith.constant"() <{value = 0 : i32}> : () -> i32
    %4 = "tts.make_tptr"(%arg0) <{operandSegmentSizes = array<i32: 1, 0, 0, 0>, order = array<i32>, sizes = array<i64: 128, 128>, static_offsets = array<i64: 0, 0>, static_shape = array<i64: 0, 0>, static_strides = array<i64: 1, 1>}> : (!tt.ptr<i1>) -> tensor<128x128x!tt.ptr<i1>>
    %5 = "tts.make_tptr"(%arg1) <{operandSegmentSizes = array<i32: 1, 0, 0, 0>, order = array<i32>, sizes = array<i64: 128, 128>, static_offsets = array<i64: 0, 0>, static_shape = array<i64: 0, 0>, static_strides = array<i64: 1, 1>}> : (!tt.ptr<f32>) -> tensor<128x128x!tt.ptr<f32>>
    %6 = "tts.make_tptr"(%arg2) <{operandSegmentSizes = array<i32: 1, 0, 0, 0>, order = array<i32>, sizes = array<i64: 128, 128>, static_offsets = array<i64: 0, 0>, static_shape = array<i64: 0, 0>, static_strides = array<i64: 1, 1>}> : (!tt.ptr<f32>) -> tensor<128x128x!tt.ptr<f32>>
    %7 = "tts.load"(%4) <{operandSegmentSizes = array<i32: 1, 0, 0>, static_mask_dims = array<i64>}> : (tensor<128x128x!tt.ptr<i1>>) -> tensor<128x128xi1>
    %8 = "tts.load"(%5) <{operandSegmentSizes = array<i32: 1, 0, 0>, static_mask_dims = array<i64>}> : (tensor<128x128x!tt.ptr<f32>>) -> tensor<128x128xf32>
    %9 = "tts.load"(%6) <{operandSegmentSizes = array<i32: 1, 0, 0>, static_mask_dims = array<i64>}> : (tensor<128x128x!tt.ptr<f32>>) -> tensor<128x128xf32>
    %10 = "arith.select"(%7, %8, %9) : (tensor<128x128xi1>, tensor<128x128xf32>, tensor<128x128xf32>) -> tensor<128x128xf32>
    %11 = "tts.create_ptr"(%arg3, %0) : (tensor<128x128x!tt.ptr<f32>>, tensor<128x128xi32>) -> tensor<128x128x!tt.ptr<f32>>
    "tt.store"(%0, %10) <{boundaryCheck = array<i32>, cache = 1 : i32, evict = 1 : i32}> : (tensor<128x128xi32>, tensor<128x128xf32>) -> ()
    "tt.return"() : () -> ()
  }) : () -> ()
}) : () -> ()
total addptr count: 0
"builtin.module"() ({
  "func.func"() <{function_type = (!tt.ptr<i1>, !tt.ptr<f32>, !tt.ptr<f32>, tensor<128x128x!tt.ptr<f32>>, i32, i32, i32, i32, i32, i32) -> (), sym_name = "kernel"}> ({
  ^bb0(%arg0: !tt.ptr<i1>, %arg1: !tt.ptr<f32>, %arg2: !tt.ptr<f32>, %arg3: tensor<128x128x!tt.ptr<f32>>, %arg4: i32, %arg5: i32, %arg6: i32, %arg7: i32, %arg8: i32, %arg9: i32):
    %0 = "arith.constant"() <{value = 0 : i32}> : () -> i32
    %1 = "tensor.empty"() : () -> tensor<128x128xi32>
    %2 = "linalg.fill"(%0, %1) <{operandSegmentSizes = array<i32: 1, 1>}> ({
    ^bb0(%arg14: i32, %arg15: i32):
      "linalg.yield"(%arg14) : (i32) -> ()
    }) : (i32, tensor<128x128xi32>) -> tensor<128x128xi32>
    %3 = "builtin.unrealized_conversion_cast"(%arg0) : (!tt.ptr<i1>) -> memref<*xi1>
    %4 = "tts.make_tptr"(%3) <{operandSegmentSizes = array<i32: 1, 0, 0, 0>, order = array<i32>, sizes = array<i64: 128, 128>, static_offsets = array<i64: 0, 0>, static_shape = array<i64: 0, 0>, static_strides = array<i64: 1, 1>}> : (memref<*xi1>) -> tensor<128x128x!tt.ptr<i1>>
    %5 = "builtin.unrealized_conversion_cast"(%arg1) : (!tt.ptr<f32>) -> memref<*xf32>
    %6 = "tts.make_tptr"(%5) <{operandSegmentSizes = array<i32: 1, 0, 0, 0>, order = array<i32>, sizes = array<i64: 128, 128>, static_offsets = array<i64: 0, 0>, static_shape = array<i64: 0, 0>, static_strides = array<i64: 1, 1>}> : (memref<*xf32>) -> tensor<128x128x!tt.ptr<f32>>
    %7 = "builtin.unrealized_conversion_cast"(%arg2) : (!tt.ptr<f32>) -> memref<*xf32>
    %8 = "tts.make_tptr"(%7) <{operandSegmentSizes = array<i32: 1, 0, 0, 0>, order = array<i32>, sizes = array<i64: 128, 128>, static_offsets = array<i64: 0, 0>, static_shape = array<i64: 0, 0>, static_strides = array<i64: 1, 1>}> : (memref<*xf32>) -> tensor<128x128x!tt.ptr<f32>>
    %9 = "tts.load"(%4) <{operandSegmentSizes = array<i32: 1, 0, 0>, static_mask_dims = array<i64>}> : (tensor<128x128x!tt.ptr<i1>>) -> tensor<128x128xi1>
    %10 = "tts.load"(%6) <{operandSegmentSizes = array<i32: 1, 0, 0>, static_mask_dims = array<i64>}> : (tensor<128x128x!tt.ptr<f32>>) -> tensor<128x128xf32>
    %11 = "tts.load"(%8) <{operandSegmentSizes = array<i32: 1, 0, 0>, static_mask_dims = array<i64>}> : (tensor<128x128x!tt.ptr<f32>>) -> tensor<128x128xf32>
    %12 = "linalg.generic"(%9, %10, %11, %10) <{indexing_maps = [affine_map<(d0, d1) -> (d0, d1)>, affine_map<(d0, d1) -> (d0, d1)>, affine_map<(d0, d1) -> (d0, d1)>, affine_map<(d0, d1) -> (d0, d1)>], iterator_types = [#linalg.iterator_type<parallel>, #linalg.iterator_type<parallel>], operandSegmentSizes = array<i32: 3, 1>}> ({
    ^bb0(%arg10: i1, %arg11: f32, %arg12: f32, %arg13: f32):
      %14 = "arith.select"(%arg10, %arg11, %arg12) : (i1, f32, f32) -> f32
      "linalg.yield"(%14) : (f32) -> ()
    }) : (tensor<128x128xi1>, tensor<128x128xf32>, tensor<128x128xf32>, tensor<128x128xf32>) -> tensor<128x128xf32>
    %13 = "tts.create_ptr"(%arg3, %2) : (tensor<128x128x!tt.ptr<f32>>, tensor<128x128xi32>) -> tensor<128x128x!tt.ptr<f32>>
    "tt.store"(%13, %12) <{boundaryCheck = array<i32>, cache = 1 : i32, evict = 1 : i32}> : (tensor<128x128x!tt.ptr<f32>>, tensor<128x128xf32>) -> ()
    "func.return"() : () -> ()
  }) : () -> ()
}) : () -> ()
within split at /home/nhat/github/triton_shared/test/Conversion/StructuredToMemref/convert_2d_elemwise_arith_ternary.mlir:1 offset :30:9: error: 'memref.cast' op operand #0 must be ranked or unranked memref of any type values, but got 'tensor<128x128x!tt.ptr<f32>>'
        tt.store %d, %100 : tensor<128x128x!tt.ptr<f32>>
        ^
within split at /home/nhat/github/triton_shared/test/Conversion/StructuredToMemref/convert_2d_elemwise_arith_ternary.mlir:1 offset :30:9: note: see current operation: %16 = "memref.cast"(%arg3) : (tensor<128x128x!tt.ptr<f32>>) -> memref<?xf32>
FileCheck error: '<stdin>' is empty.
FileCheck command line:  FileCheck /home/nhat/github/triton_shared/test/Conversion/StructuredToMemref/convert_2d_elemwise_arith_ternary.mlir

--

********************
FAIL: TRITON-SHARED :: Conversion/StructuredToMemref/block_ptr_advance.mlir (9 of 215)
******************** TEST 'TRITON-SHARED :: Conversion/StructuredToMemref/block_ptr_advance.mlir' FAILED ********************
Exit Code: 2

Command Output (stderr):
--
RUN: at line 1: /home/nhat/github/triton_shared/triton/python/build/cmake.linux-x86_64-cpython-3.8/third_party/triton_shared/tools/triton-shared-opt/triton-shared-opt --split-input-file --triton-to-linalg-experimental /home/nhat/github/triton_shared/test/Conversion/StructuredToMemref/block_ptr_advance.mlir | FileCheck /home/nhat/github/triton_shared/test/Conversion/StructuredToMemref/block_ptr_advance.mlir
+ /home/nhat/github/triton_shared/triton/python/build/cmake.linux-x86_64-cpython-3.8/third_party/triton_shared/tools/triton-shared-opt/triton-shared-opt --split-input-file --triton-to-linalg-experimental /home/nhat/github/triton_shared/test/Conversion/StructuredToMemref/block_ptr_advance.mlir
+ FileCheck /home/nhat/github/triton_shared/test/Conversion/StructuredToMemref/block_ptr_advance.mlir
module {
  tt.func public @matmul_kernel_with_block_pointers_01234567891011(%arg0: !tt.ptr<bf16>, %arg1: !tt.ptr<bf16>, %arg2: !tt.ptr<bf16>, %arg3: i32, %arg4: i32, %arg5: i32, %arg6: i32, %arg7: i32, %arg8: i32, %arg9: i32, %arg10: i32, %arg11: i32, %arg12: i32, %arg13: i32) {
    %c0_i32 = arith.constant 0 : i32
    %c0_i32_0 = arith.constant 0 : i32
    %c0_i32_1 = arith.constant 0 : i32
    %c64 = arith.constant 64 : index
    %c0 = arith.constant 0 : index
    %cst = arith.constant dense<0.000000e+00> : tensor<128x64xbf16>
    %c64_i32 = arith.constant 64 : i32
    %c0_i32_2 = arith.constant 0 : i32
    %c256_i32 = arith.constant 256 : i32
    %0 = arith.index_cast %arg6 : i32 to index
    %1 = arith.index_cast %arg12 : i32 to index
    %2 = arith.muli %1, %0 : index
    %3 = arith.index_cast %arg3 : i32 to index
    %4 = arith.index_cast %arg7 : i32 to index
    %5 = arith.index_cast %arg5 : i32 to index
    %6 = arith.muli %4, %c64 : index
    %7:3 = scf.for %arg14 = %c0_i32_2 to %arg5 step %c64_i32 iter_args(%arg15 = %cst, %arg16 = %6, %arg17 = %2) -> (tensor<128x64xbf16>, index, index)  : i32 {
      %16 = tts.make_tptr %arg0 to sizes: [128, 64], strides: [%0, %4], offsets: [%arg17, %c0], shape: [%3, %5], order: [1, 0] : <bf16> to !tt.ptr<tensor<128x64xbf16>>
      %17 = tts.make_tptr %arg0 to sizes: [128, 64], strides: [%0, %4], offsets: [%2, %arg16], shape: [%3, %5], order: [1, 0] : <bf16> to !tt.ptr<tensor<128x64xbf16>>
      %18 = "tts.load"(%17) <{operandSegmentSizes = array<i32: 1, 0, 0>, static_mask_dims = array<i64>}> : (!tt.ptr<tensor<128x64xbf16>>) -> tensor<128x64xbf16>
      %19 = "tts.load"(%16) <{operandSegmentSizes = array<i32: 1, 0, 0>, static_mask_dims = array<i64>}> : (!tt.ptr<tensor<128x64xbf16>>) -> tensor<128x64xbf16>
      %20 = arith.addf %18, %19 : tensor<128x64xbf16>
      %21 = arith.addf %arg15, %20 : tensor<128x64xbf16>
      %22 = arith.muli %4, %c64 : index
      %23 = arith.addi %22, %arg16 : index
      %24 = arith.muli %0, %c64 : index
      %25 = arith.addi %24, %arg17 : index
      scf.yield %21, %23, %25 : tensor<128x64xbf16>, index, index
    }
    %8 = arith.muli %arg13, %c256_i32 : i32
    %9 = arith.index_cast %arg10 : i32 to index
    %10 = arith.muli %1, %9 : index
    %11 = arith.index_cast %arg11 : i32 to index
    %12 = arith.index_cast %8 : i32 to index
    %13 = arith.muli %12, %11 : index
    %14 = arith.index_cast %arg4 : i32 to index
    %15 = tts.make_tptr %arg2 to sizes: [128, 64], strides: [%9, %11], offsets: [%10, %13], shape: [%3, %14], order: [1, 0] : <bf16> to !tt.ptr<tensor<128x64xbf16>>
    "tts.store"(%15, %7#0) <{static_mask_dims = array<i64>}> : (!tt.ptr<tensor<128x64xbf16>>, tensor<128x64xbf16>) -> ()
    tt.return
  }
}
processing val
%c0_i32_1 = arith.constant 0 : i32
these are the uses:
actual processing
~~~~
processing val
%c0_i32_0 = arith.constant 0 : i32
these are the uses:
actual processing
~~~~
processing val
%c0_i32 = arith.constant 0 : i32
these are the uses:
actual processing
~~~~
module {
  tt.func public @matmul_kernel_with_block_pointers_01234567891011(%arg0: !tt.ptr<bf16>, %arg1: !tt.ptr<bf16>, %arg2: !tt.ptr<bf16>, %arg3: i32, %arg4: i32, %arg5: i32, %arg6: i32, %arg7: i32, %arg8: i32, %arg9: i32, %arg10: i32, %arg11: i32, %arg12: i32, %arg13: i32) {
    %c0_i32 = arith.constant 0 : i32
    %c0_i32_0 = arith.constant 0 : i32
    %c0_i32_1 = arith.constant 0 : i32
    %c64 = arith.constant 64 : index
    %c0 = arith.constant 0 : index
    %cst = arith.constant dense<0.000000e+00> : tensor<128x64xbf16>
    %c64_i32 = arith.constant 64 : i32
    %c0_i32_2 = arith.constant 0 : i32
    %c256_i32 = arith.constant 256 : i32
    %0 = arith.index_cast %arg6 : i32 to index
    %1 = arith.index_cast %arg12 : i32 to index
    %2 = arith.muli %1, %0 : index
    %3 = arith.index_cast %arg3 : i32 to index
    %4 = arith.index_cast %arg7 : i32 to index
    %5 = arith.index_cast %arg5 : i32 to index
    %6 = arith.muli %4, %c64 : index
    %7:3 = scf.for %arg14 = %c0_i32_2 to %arg5 step %c64_i32 iter_args(%arg15 = %cst, %arg16 = %6, %arg17 = %2) -> (tensor<128x64xbf16>, index, index)  : i32 {
      %16 = tts.make_tptr %arg0 to sizes: [128, 64], strides: [%0, %4], offsets: [%arg17, %c0], shape: [%3, %5], order: [1, 0] : <bf16> to !tt.ptr<tensor<128x64xbf16>>
      %17 = tts.make_tptr %arg0 to sizes: [128, 64], strides: [%0, %4], offsets: [%2, %arg16], shape: [%3, %5], order: [1, 0] : <bf16> to !tt.ptr<tensor<128x64xbf16>>
      %18 = "tts.load"(%17) <{operandSegmentSizes = array<i32: 1, 0, 0>, static_mask_dims = array<i64>}> : (!tt.ptr<tensor<128x64xbf16>>) -> tensor<128x64xbf16>
      %19 = "tts.load"(%16) <{operandSegmentSizes = array<i32: 1, 0, 0>, static_mask_dims = array<i64>}> : (!tt.ptr<tensor<128x64xbf16>>) -> tensor<128x64xbf16>
      %20 = arith.addf %18, %19 : tensor<128x64xbf16>
      %21 = arith.addf %arg15, %20 : tensor<128x64xbf16>
      %22 = arith.muli %4, %c64 : index
      %23 = arith.addi %22, %arg16 : index
      %24 = arith.muli %0, %c64 : index
      %25 = arith.addi %24, %arg17 : index
      scf.yield %21, %23, %25 : tensor<128x64xbf16>, index, index
    }
    %8 = arith.muli %arg13, %c256_i32 : i32
    %9 = arith.index_cast %arg10 : i32 to index
    %10 = arith.muli %1, %9 : index
    %11 = arith.index_cast %arg11 : i32 to index
    %12 = arith.index_cast %8 : i32 to index
    %13 = arith.muli %12, %11 : index
    %14 = arith.index_cast %arg4 : i32 to index
    %15 = tts.make_tptr %arg2 to sizes: [128, 64], strides: [%9, %11], offsets: [%10, %13], shape: [%3, %14], order: [1, 0] : <bf16> to !tt.ptr<tensor<128x64xbf16>>
    "tts.store"(%15, %7#0) <{static_mask_dims = array<i64>}> : (!tt.ptr<tensor<128x64xbf16>>, tensor<128x64xbf16>) -> ()
    tt.return
  }
}
total addptr count: 0
"builtin.module"() ({
  "func.func"() <{function_type = (!tt.ptr<bf16>, !tt.ptr<bf16>, !tt.ptr<bf16>, i32, i32, i32, i32, i32, i32, i32, i32, i32, i32, i32, i32, i32, i32, i32, i32, i32) -> (), sym_name = "matmul_kernel_with_block_pointers_01234567891011"}> ({
  ^bb0(%arg0: !tt.ptr<bf16>, %arg1: !tt.ptr<bf16>, %arg2: !tt.ptr<bf16>, %arg3: i32, %arg4: i32, %arg5: i32, %arg6: i32, %arg7: i32, %arg8: i32, %arg9: i32, %arg10: i32, %arg11: i32, %arg12: i32, %arg13: i32, %arg14: i32, %arg15: i32, %arg16: i32, %arg17: i32, %arg18: i32, %arg19: i32):
    %0 = "arith.constant"() <{value = 0 : i32}> : () -> i32
    %1 = "arith.constant"() <{value = 64 : index}> : () -> index
    %2 = "arith.constant"() <{value = 0 : index}> : () -> index
    %3 = "arith.constant"() <{value = 0.000000e+00 : bf16}> : () -> bf16
    %4 = "tensor.empty"() : () -> tensor<128x64xbf16>
    %5 = "linalg.fill"(%3, %4) <{operandSegmentSizes = array<i32: 1, 1>}> ({
    ^bb0(%arg30: bf16, %arg31: bf16):
      "linalg.yield"(%arg30) : (bf16) -> ()
    }) : (bf16, tensor<128x64xbf16>) -> tensor<128x64xbf16>
    %6 = "arith.constant"() <{value = 64 : i32}> : () -> i32
    %7 = "arith.constant"() <{value = 256 : i32}> : () -> i32
    %8 = "arith.index_cast"(%arg6) : (i32) -> index
    %9 = "arith.index_cast"(%arg12) : (i32) -> index
    %10 = "arith.muli"(%9, %8) <{overflowFlags = #arith.overflow<none>}> : (index, index) -> index
    %11 = "arith.index_cast"(%arg3) : (i32) -> index
    %12 = "arith.index_cast"(%arg7) : (i32) -> index
    %13 = "arith.index_cast"(%arg5) : (i32) -> index
    %14 = "arith.muli"(%12, %1) <{overflowFlags = #arith.overflow<none>}> : (index, index) -> index
    %15:3 = "scf.for"(%0, %arg5, %6, %5, %14, %10) ({
    ^bb0(%arg20: i32, %arg21: tensor<128x64xbf16>, %arg22: index, %arg23: index):
      %25 = "tts.make_tptr"(%arg0, %8, %12, %arg23, %2, %11, %13) <{operandSegmentSizes = array<i32: 1, 2, 2, 2>, order = array<i32: 1, 0>, sizes = array<i64: 128, 64>, static_offsets = array<i64: -9223372036854775808, -9223372036854775808>, static_shape = array<i64: -9223372036854775808, -9223372036854775808>, static_strides = array<i64: -9223372036854775808, -9223372036854775808>}> : (!tt.ptr<bf16>, index, index, index, index, index, index) -> !tt.ptr<tensor<128x64xbf16>>
      %26 = "builtin.unrealized_conversion_cast"(%arg0) : (!tt.ptr<bf16>) -> memref<*xbf16>
      %27 = "tts.make_tptr"(%26, %8, %12, %10, %arg22, %11, %13) <{operandSegmentSizes = array<i32: 1, 2, 2, 2>, order = array<i32: 1, 0>, sizes = array<i64: 128, 64>, static_offsets = array<i64: -9223372036854775808, -9223372036854775808>, static_shape = array<i64: -9223372036854775808, -9223372036854775808>, static_strides = array<i64: -9223372036854775808, -9223372036854775808>}> : (memref<*xbf16>, index, index, index, index, index, index) -> !tt.ptr<tensor<128x64xbf16>>
      %28 = "tts.load"(%27) <{operandSegmentSizes = array<i32: 1, 0, 0>, static_mask_dims = array<i64>}> : (!tt.ptr<tensor<128x64xbf16>>) -> tensor<128x64xbf16>
      %29 = "tts.load"(%25) <{operandSegmentSizes = array<i32: 1, 0, 0>, static_mask_dims = array<i64>}> : (!tt.ptr<tensor<128x64xbf16>>) -> tensor<128x64xbf16>
      %30 = "linalg.generic"(%28, %29, %28) <{indexing_maps = [affine_map<(d0, d1) -> (d0, d1)>, affine_map<(d0, d1) -> (d0, d1)>, affine_map<(d0, d1) -> (d0, d1)>], iterator_types = [#linalg.iterator_type<parallel>, #linalg.iterator_type<parallel>], operandSegmentSizes = array<i32: 2, 1>}> ({
      ^bb0(%arg27: bf16, %arg28: bf16, %arg29: bf16):
        %37 = "arith.addf"(%arg27, %arg28) <{fastmath = #arith.fastmath<none>}> : (bf16, bf16) -> bf16
        "linalg.yield"(%37) : (bf16) -> ()
      }) : (tensor<128x64xbf16>, tensor<128x64xbf16>, tensor<128x64xbf16>) -> tensor<128x64xbf16>
      %31 = "linalg.generic"(%arg21, %30, %arg21) <{indexing_maps = [affine_map<(d0, d1) -> (d0, d1)>, affine_map<(d0, d1) -> (d0, d1)>, affine_map<(d0, d1) -> (d0, d1)>], iterator_types = [#linalg.iterator_type<parallel>, #linalg.iterator_type<parallel>], operandSegmentSizes = array<i32: 2, 1>}> ({
      ^bb0(%arg24: bf16, %arg25: bf16, %arg26: bf16):
        %36 = "arith.addf"(%arg24, %arg25) <{fastmath = #arith.fastmath<none>}> : (bf16, bf16) -> bf16
        "linalg.yield"(%36) : (bf16) -> ()
      }) : (tensor<128x64xbf16>, tensor<128x64xbf16>, tensor<128x64xbf16>) -> tensor<128x64xbf16>
      %32 = "arith.muli"(%12, %1) <{overflowFlags = #arith.overflow<none>}> : (index, index) -> index
      %33 = "arith.addi"(%32, %arg22) <{overflowFlags = #arith.overflow<none>}> : (index, index) -> index
      %34 = "arith.muli"(%8, %1) <{overflowFlags = #arith.overflow<none>}> : (index, index) -> index
      %35 = "arith.addi"(%34, %arg23) <{overflowFlags = #arith.overflow<none>}> : (index, index) -> index
      "scf.yield"(%31, %33, %35) : (tensor<128x64xbf16>, index, index) -> ()
    }) : (i32, i32, i32, tensor<128x64xbf16>, index, index) -> (tensor<128x64xbf16>, index, index)
    %16 = "arith.muli"(%arg13, %7) <{overflowFlags = #arith.overflow<none>}> : (i32, i32) -> i32
    %17 = "arith.index_cast"(%arg10) : (i32) -> index
    %18 = "arith.muli"(%9, %17) <{overflowFlags = #arith.overflow<none>}> : (index, index) -> index
    %19 = "arith.index_cast"(%arg11) : (i32) -> index
    %20 = "arith.index_cast"(%16) : (i32) -> index
    %21 = "arith.muli"(%20, %19) <{overflowFlags = #arith.overflow<none>}> : (index, index) -> index
    %22 = "arith.index_cast"(%arg4) : (i32) -> index
    %23 = "builtin.unrealized_conversion_cast"(%arg2) : (!tt.ptr<bf16>) -> memref<*xbf16>
    %24 = "tts.make_tptr"(%23, %17, %19, %18, %21, %11, %22) <{operandSegmentSizes = array<i32: 1, 2, 2, 2>, order = array<i32: 1, 0>, sizes = array<i64: 128, 64>, static_offsets = array<i64: -9223372036854775808, -9223372036854775808>, static_shape = array<i64: -9223372036854775808, -9223372036854775808>, static_strides = array<i64: -9223372036854775808, -9223372036854775808>}> : (memref<*xbf16>, index, index, index, index, index, index) -> !tt.ptr<tensor<128x64xbf16>>
    "tts.store"(%24, %15#0) <{static_mask_dims = array<i64>}> : (!tt.ptr<tensor<128x64xbf16>>, tensor<128x64xbf16>) -> ()
    "func.return"() : () -> ()
  }) : () -> ()
}) : () -> ()
within split at /home/nhat/github/triton_shared/test/Conversion/StructuredToMemref/block_ptr_advance.mlir:1 offset :16:12: error: 'memref.reinterpret_cast' op operand #0 must be ranked or unranked memref of any type values, but got '!tt.ptr<bf16>'
    %7:3 = scf.for %arg14 = %c0_i32 to %arg5 step %c64_i32 iter_args(%arg15 = %6, %arg16 = %5, %arg17 = %4) -> (tensor<128x64xbf16>, !tt.ptr<tensor<128x64xbf16>>, !tt.ptr<tensor<128x64xbf16>>)  : i32 {
           ^
within split at /home/nhat/github/triton_shared/test/Conversion/StructuredToMemref/block_ptr_advance.mlir:1 offset :16:12: note: see current operation: %27 = "memref.reinterpret_cast"(%arg0, %26, %8, %12) <{operandSegmentSizes = array<i32: 1, 1, 0, 2>, static_offsets = array<i64: -9223372036854775808>, static_sizes = array<i64: 128, 64>, static_strides = array<i64: -9223372036854775808, -9223372036854775808>}> : (!tt.ptr<bf16>, index, index, index) -> memref<128x64xbf16, strided<[?, ?], offset: ?>>
FileCheck error: '<stdin>' is empty.
FileCheck command line:  FileCheck /home/nhat/github/triton_shared/test/Conversion/StructuredToMemref/block_ptr_advance.mlir

--

********************
PASS: TRITON-SHARED :: Conversion/StructuredToMemref/kernel-02-fused-softmax.mlir (10 of 215)
FAIL: TRITON-SHARED :: Conversion/StructuredToMemref/nested_loops.mlir (11 of 215)
******************** TEST 'TRITON-SHARED :: Conversion/StructuredToMemref/nested_loops.mlir' FAILED ********************
Exit Code: 2

Command Output (stderr):
--
RUN: at line 1: /home/nhat/github/triton_shared/triton/python/build/cmake.linux-x86_64-cpython-3.8/third_party/triton_shared/tools/triton-shared-opt/triton-shared-opt --split-input-file --triton-to-linalg-experimental /home/nhat/github/triton_shared/test/Conversion/StructuredToMemref/nested_loops.mlir | FileCheck /home/nhat/github/triton_shared/test/Conversion/StructuredToMemref/nested_loops.mlir
+ FileCheck /home/nhat/github/triton_shared/test/Conversion/StructuredToMemref/nested_loops.mlir
+ /home/nhat/github/triton_shared/triton/python/build/cmake.linux-x86_64-cpython-3.8/third_party/triton_shared/tools/triton-shared-opt/triton-shared-opt --split-input-file --triton-to-linalg-experimental /home/nhat/github/triton_shared/test/Conversion/StructuredToMemref/nested_loops.mlir
module {
  tt.func public @nested2_complex_body(%arg0: !tt.ptr<f32>, %arg1: !tt.ptr<f32>, %arg2: i32, %arg3: i32) attributes {noinline = false} {
    %c0_i32 = arith.constant 0 : i32
    %c0_i32_0 = arith.constant 0 : i32
    %c3 = arith.constant 3 : index
    %c1 = arith.constant 1 : index
    %c0 = arith.constant 0 : index
    %c1_i32 = arith.constant 1 : i32
    %c0_i32_1 = arith.constant 0 : i32
    %c2_i32 = arith.constant 2 : i32
    %0 = arith.index_cast %arg2 : i32 to index
    %1 = arith.index_cast %arg3 : i32 to index
    %2 = arith.muli %arg2, %c2_i32 : i32
    %3 = arith.index_cast %2 : i32 to index
    %4:2 = scf.for %arg4 = %c0_i32_1 to %c2_i32 step %c1_i32 iter_args(%arg5 = %c0, %arg6 = %c0) -> (index, index)  : i32 {
      %5 = arith.addi %arg5, %c1 : index
      %6 = arith.addi %arg6, %c1 : index
      %7:2 = scf.for %arg7 = %c0_i32_1 to %c2_i32 step %c1_i32 iter_args(%arg8 = %5, %arg9 = %6) -> (index, index)  : i32 {
        %12 = tts.make_tptr %arg1 to sizes: [2, 2], strides: [%0, %1], offsets: [%arg9, %c0], shape: [0, 0], order: [] : <f32> to tensor<2x2x!tt.ptr<f32>>
        %13 = tts.make_tptr %arg0 to sizes: [2, 2], strides: [%0, %1], offsets: [%arg8, %c0], shape: [0, 0], order: [] : <f32> to tensor<2x2x!tt.ptr<f32>>
        %14 = "tts.load"(%13) <{operandSegmentSizes = array<i32: 1, 0, 0>, static_mask_dims = array<i64>}> : (tensor<2x2x!tt.ptr<f32>>) -> tensor<2x2xf32>
        "tts.store"(%12, %14) <{static_mask_dims = array<i64>}> : (tensor<2x2x!tt.ptr<f32>>, tensor<2x2xf32>) -> ()
        %15 = arith.addi %arg8, %c3 : index
        %16 = arith.addi %arg9, %c3 : index
        scf.yield %15, %16 : index, index
      }
      %8 = arith.addi %arg5, %3 : index
      %9 = arith.addi %8, %c1 : index
      %10 = arith.addi %arg6, %3 : index
      %11 = arith.addi %10, %c1 : index
      scf.yield %9, %11 : index, index
    }
    tt.return
  }
  tt.func public @nested2_use_loop_results(%arg0: !tt.ptr<f32>, %arg1: !tt.ptr<f32>, %arg2: i32, %arg3: i32) attributes {noinline = false} {
    %c0_i32 = arith.constant 0 : i32
    %c0_i32_0 = arith.constant 0 : i32
    %c0 = arith.constant 0 : index
    %c1_i32 = arith.constant 1 : i32
    %c2_i32 = arith.constant 2 : i32
    %c0_i32_1 = arith.constant 0 : i32
    %c4_i32 = arith.constant 4 : i32
    %0 = arith.index_cast %arg2 : i32 to index
    %1 = arith.index_cast %arg3 : i32 to index
    %2 = arith.muli %arg3, %c4_i32 : i32
    %3 = arith.index_cast %2 : i32 to index
    %4:2 = scf.for %arg4 = %c0_i32_1 to %c2_i32 step %c1_i32 iter_args(%arg5 = %c0, %arg6 = %c0) -> (index, index)  : i32 {
      %5 = tts.make_tptr %arg1 to sizes: [2, 2], strides: [%0, %1], offsets: [%arg6, %c0], shape: [0, 0], order: [] : <f32> to tensor<2x2x!tt.ptr<f32>>
      %6 = tts.make_tptr %arg0 to sizes: [2, 2], strides: [%0, %1], offsets: [%arg5, %c0], shape: [0, 0], order: [] : <f32> to tensor<2x2x!tt.ptr<f32>>
      %7 = "tts.load"(%6) <{operandSegmentSizes = array<i32: 1, 0, 0>, static_mask_dims = array<i64>}> : (tensor<2x2x!tt.ptr<f32>>) -> tensor<2x2xf32>
      "tts.store"(%5, %7) <{static_mask_dims = array<i64>}> : (tensor<2x2x!tt.ptr<f32>>, tensor<2x2xf32>) -> ()
      %8 = arith.addi %arg5, %3 : index
      %9 = arith.addi %arg6, %3 : index
      %10:2 = scf.for %arg7 = %c0_i32_1 to %c2_i32 step %c1_i32 iter_args(%arg8 = %8, %arg9 = %9) -> (index, index)  : i32 {
        %11 = tts.make_tptr %arg1 to sizes: [2, 2], strides: [%0, %1], offsets: [%arg9, %c0], shape: [0, 0], order: [] : <f32> to tensor<2x2x!tt.ptr<f32>>
        %12 = tts.make_tptr %arg0 to sizes: [2, 2], strides: [%0, %1], offsets: [%arg8, %c0], shape: [0, 0], order: [] : <f32> to tensor<2x2x!tt.ptr<f32>>
        %13 = "tts.load"(%12) <{operandSegmentSizes = array<i32: 1, 0, 0>, static_mask_dims = array<i64>}> : (tensor<2x2x!tt.ptr<f32>>) -> tensor<2x2xf32>
        "tts.store"(%11, %13) <{static_mask_dims = array<i64>}> : (tensor<2x2x!tt.ptr<f32>>, tensor<2x2xf32>) -> ()
        %14 = arith.addi %arg8, %3 : index
        %15 = arith.addi %arg9, %3 : index
        scf.yield %14, %15 : index, index
      }
      scf.yield %10#0, %10#1 : index, index
    }
    tt.return
  }
  tt.func public @nested3(%arg0: !tt.ptr<f32>, %arg1: !tt.ptr<f32>, %arg2: i32, %arg3: i32) attributes {noinline = false} {
    %c0_i32 = arith.constant 0 : i32
    %c0_i32_0 = arith.constant 0 : i32
    %c0 = arith.constant 0 : index
    %c1_i32 = arith.constant 1 : i32
    %c0_i32_1 = arith.constant 0 : i32
    %c2_i32 = arith.constant 2 : i32
    %0 = arith.index_cast %arg2 : i32 to index
    %1 = arith.index_cast %arg3 : i32 to index
    %2 = tts.make_tptr %arg1 to sizes: [2, 2], strides: [%0, %1], offsets: [0, 0], shape: [0, 0], order: [] : <f32> to tensor<2x2x!tt.ptr<f32>>
    %3 = arith.muli %arg3, %c2_i32 : i32
    %4 = arith.index_cast %3 : i32 to index
    %5:3 = scf.for %arg4 = %c0_i32_1 to %c2_i32 step %c1_i32 iter_args(%arg5 = %c0, %arg6 = %2, %arg7 = %c0) -> (index, tensor<2x2x!tt.ptr<f32>>, index)  : i32 {
      %6 = tts.make_tptr %arg0 to sizes: [2, 2], strides: [%0, %1], offsets: [%arg5, %c0], shape: [0, 0], order: [] : <f32> to tensor<2x2x!tt.ptr<f32>>
      %7 = "tts.load"(%6) <{operandSegmentSizes = array<i32: 1, 0, 0>, static_mask_dims = array<i64>}> : (tensor<2x2x!tt.ptr<f32>>) -> tensor<2x2xf32>
      %8:3 = scf.for %arg8 = %c0_i32_1 to %c2_i32 step %c1_i32 iter_args(%arg9 = %arg5, %arg10 = %arg6, %arg11 = %arg7) -> (index, tensor<2x2x!tt.ptr<f32>>, index)  : i32 {
        %10 = arith.addi %arg9, %4 : index
        %11 = tts.make_tptr %arg0 to sizes: [2, 2], strides: [%0, %1], offsets: [%10, %c0], shape: [0, 0], order: [] : <f32> to tensor<2x2x!tt.ptr<f32>>
        %12 = "tts.load"(%11) <{operandSegmentSizes = array<i32: 1, 0, 0>, static_mask_dims = array<i64>}> : (tensor<2x2x!tt.ptr<f32>>) -> tensor<2x2xf32>
        %13:3 = scf.for %arg12 = %c0_i32_1 to %c2_i32 step %c1_i32 iter_args(%arg13 = %10, %arg14 = %arg10, %arg15 = %arg11) -> (index, tensor<2x2x!tt.ptr<f32>>, index)  : i32 {
          %14 = tts.make_tptr %arg1 to sizes: [2, 2], strides: [%0, %1], offsets: [%arg15, %c0], shape: [0, 0], order: [] : <f32> to tensor<2x2x!tt.ptr<f32>>
          %15 = arith.addi %arg13, %4 : index
          %16 = tts.make_tptr %arg0 to sizes: [2, 2], strides: [%0, %1], offsets: [%15, %c0], shape: [0, 0], order: [] : <f32> to tensor<2x2x!tt.ptr<f32>>
          %17 = "tts.load"(%16) <{operandSegmentSizes = array<i32: 1, 0, 0>, static_mask_dims = array<i64>}> : (tensor<2x2x!tt.ptr<f32>>) -> tensor<2x2xf32>
          "tts.store"(%14, %7) <{static_mask_dims = array<i64>}> : (tensor<2x2x!tt.ptr<f32>>, tensor<2x2xf32>) -> ()
          %18 = arith.addi %arg15, %4 : index
          %19 = tts.make_tptr %arg1 to sizes: [2, 2], strides: [%0, %1], offsets: [%18, %c0], shape: [0, 0], order: [] : <f32> to tensor<2x2x!tt.ptr<f32>>
          "tts.store"(%19, %12) <{static_mask_dims = array<i64>}> : (tensor<2x2x!tt.ptr<f32>>, tensor<2x2xf32>) -> ()
          %20 = arith.addi %18, %4 : index
          %21 = tts.make_tptr %arg1 to sizes: [2, 2], strides: [%0, %1], offsets: [%20, %c0], shape: [0, 0], order: [] : <f32> to tensor<2x2x!tt.ptr<f32>>
          "tts.store"(%21, %17) <{static_mask_dims = array<i64>}> : (tensor<2x2x!tt.ptr<f32>>, tensor<2x2xf32>) -> ()
          %22 = arith.addi %20, %4 : index
          %23 = tts.make_tptr %arg1 to sizes: [2, 2], strides: [%0, %1], offsets: [%22, %c0], shape: [0, 0], order: [] : <f32> to tensor<2x2x!tt.ptr<f32>>
          scf.yield %15, %23, %22 : index, tensor<2x2x!tt.ptr<f32>>, index
        }
        scf.yield %13#0, %13#1, %13#2 : index, tensor<2x2x!tt.ptr<f32>>, index
      }
      %9 = arith.addi %8#0, %4 : index
      scf.yield %9, %8#1, %8#2 : index, tensor<2x2x!tt.ptr<f32>>, index
    }
    tt.return
  }
  tt.func public @nested_use_same_level_loop_result(%arg0: !tt.ptr<f32>, %arg1: !tt.ptr<f32>, %arg2: i32, %arg3: i32) attributes {noinline = false} {
    %c0_i32 = arith.constant 0 : i32
    %c0_i32_0 = arith.constant 0 : i32
    %c0 = arith.constant 0 : index
    %c1_i32 = arith.constant 1 : i32
    %c0_i32_1 = arith.constant 0 : i32
    %c2_i32 = arith.constant 2 : i32
    %0 = arith.index_cast %arg2 : i32 to index
    %1 = arith.index_cast %arg3 : i32 to index
    %2 = tts.make_tptr %arg1 to sizes: [2, 2], strides: [%0, %1], offsets: [0, 0], shape: [0, 0], order: [] : <f32> to tensor<2x2x!tt.ptr<f32>>
    %3 = arith.muli %arg3, %c2_i32 : i32
    %4 = arith.index_cast %3 : i32 to index
    %5:3 = scf.for %arg4 = %c0_i32_1 to %c2_i32 step %c1_i32 iter_args(%arg5 = %c0, %arg6 = %2, %arg7 = %c0) -> (index, tensor<2x2x!tt.ptr<f32>>, index)  : i32 {
      %6 = scf.for %arg8 = %c0_i32_1 to %c2_i32 step %c1_i32 iter_args(%arg9 = %arg5) -> (index)  : i32 {
        %9 = arith.addi %arg9, %4 : index
        scf.yield %9 : index
      }
      %7:3 = scf.for %arg8 = %c0_i32_1 to %c2_i32 step %c1_i32 iter_args(%arg9 = %6, %arg10 = %arg6, %arg11 = %arg7) -> (index, tensor<2x2x!tt.ptr<f32>>, index)  : i32 {
        %9 = tts.make_tptr %arg1 to sizes: [2, 2], strides: [%0, %1], offsets: [%arg11, %c0], shape: [0, 0], order: [] : <f32> to tensor<2x2x!tt.ptr<f32>>
        %10 = tts.make_tptr %arg0 to sizes: [2, 2], strides: [%0, %1], offsets: [%arg9, %c0], shape: [0, 0], order: [] : <f32> to tensor<2x2x!tt.ptr<f32>>
        %11 = "tts.load"(%10) <{operandSegmentSizes = array<i32: 1, 0, 0>, static_mask_dims = array<i64>}> : (tensor<2x2x!tt.ptr<f32>>) -> tensor<2x2xf32>
        %12 = arith.addi %arg9, %4 : index
        %13 = tts.make_tptr %arg0 to sizes: [2, 2], strides: [%0, %1], offsets: [%12, %c0], shape: [0, 0], order: [] : <f32> to tensor<2x2x!tt.ptr<f32>>
        %14 = "tts.load"(%13) <{operandSegmentSizes = array<i32: 1, 0, 0>, static_mask_dims = array<i64>}> : (tensor<2x2x!tt.ptr<f32>>) -> tensor<2x2xf32>
        "tts.store"(%9, %11) <{static_mask_dims = array<i64>}> : (tensor<2x2x!tt.ptr<f32>>, tensor<2x2xf32>) -> ()
        %15 = arith.addi %arg11, %4 : index
        %16 = arith.addi %15, %4 : index
        %17 = tts.make_tptr %arg1 to sizes: [2, 2], strides: [%0, %1], offsets: [%16, %c0], shape: [0, 0], order: [] : <f32> to tensor<2x2x!tt.ptr<f32>>
        "tts.store"(%17, %14) <{static_mask_dims = array<i64>}> : (tensor<2x2x!tt.ptr<f32>>, tensor<2x2xf32>) -> ()
        %18 = arith.addi %16, %4 : index
        %19 = tts.make_tptr %arg1 to sizes: [2, 2], strides: [%0, %1], offsets: [%18, %c0], shape: [0, 0], order: [] : <f32> to tensor<2x2x!tt.ptr<f32>>
        %20 = arith.addi %12, %4 : index
        scf.yield %20, %19, %18 : index, tensor<2x2x!tt.ptr<f32>>, index
      }
      %8 = arith.addi %7#0, %4 : index
      scf.yield %8, %7#1, %7#2 : index, tensor<2x2x!tt.ptr<f32>>, index
    }
    tt.return
  }
}
processing val
%c0_i32_0 = arith.constant 0 : i32
these are the uses:
actual processing
~~~~
processing val
%c0_i32 = arith.constant 0 : i32
these are the uses:
actual processing
~~~~
processing val
%c0_i32_0 = arith.constant 0 : i32
these are the uses:
actual processing
~~~~
processing val
%c0_i32 = arith.constant 0 : i32
these are the uses:
actual processing
~~~~
processing val
%c0_i32_0 = arith.constant 0 : i32
these are the uses:
actual processing
~~~~
processing val
%c0_i32 = arith.constant 0 : i32
these are the uses:
actual processing
~~~~
processing val
%c0_i32_0 = arith.constant 0 : i32
these are the uses:
actual processing
~~~~
processing val
%c0_i32 = arith.constant 0 : i32
these are the uses:
actual processing
~~~~
module {
  tt.func public @nested2_complex_body(%arg0: !tt.ptr<f32>, %arg1: !tt.ptr<f32>, %arg2: i32, %arg3: i32) attributes {noinline = false} {
    %c0_i32 = arith.constant 0 : i32
    %c0_i32_0 = arith.constant 0 : i32
    %c3 = arith.constant 3 : index
    %c1 = arith.constant 1 : index
    %c0 = arith.constant 0 : index
    %c1_i32 = arith.constant 1 : i32
    %c0_i32_1 = arith.constant 0 : i32
    %c2_i32 = arith.constant 2 : i32
    %0 = arith.index_cast %arg2 : i32 to index
    %1 = arith.index_cast %arg3 : i32 to index
    %2 = arith.muli %arg2, %c2_i32 : i32
    %3 = arith.index_cast %2 : i32 to index
    %4:2 = scf.for %arg4 = %c0_i32_1 to %c2_i32 step %c1_i32 iter_args(%arg5 = %c0, %arg6 = %c0) -> (index, index)  : i32 {
      %5 = arith.addi %arg5, %c1 : index
      %6 = arith.addi %arg6, %c1 : index
      %7:2 = scf.for %arg7 = %c0_i32_1 to %c2_i32 step %c1_i32 iter_args(%arg8 = %5, %arg9 = %6) -> (index, index)  : i32 {
        %12 = tts.make_tptr %arg1 to sizes: [2, 2], strides: [%0, %1], offsets: [%arg9, %c0], shape: [0, 0], order: [] : <f32> to tensor<2x2x!tt.ptr<f32>>
        %13 = tts.make_tptr %arg0 to sizes: [2, 2], strides: [%0, %1], offsets: [%arg8, %c0], shape: [0, 0], order: [] : <f32> to tensor<2x2x!tt.ptr<f32>>
        %14 = "tts.load"(%13) <{operandSegmentSizes = array<i32: 1, 0, 0>, static_mask_dims = array<i64>}> : (tensor<2x2x!tt.ptr<f32>>) -> tensor<2x2xf32>
        "tts.store"(%12, %14) <{static_mask_dims = array<i64>}> : (tensor<2x2x!tt.ptr<f32>>, tensor<2x2xf32>) -> ()
        %15 = arith.addi %arg8, %c3 : index
        %16 = arith.addi %arg9, %c3 : index
        scf.yield %15, %16 : index, index
      }
      %8 = arith.addi %arg5, %3 : index
      %9 = arith.addi %8, %c1 : index
      %10 = arith.addi %arg6, %3 : index
      %11 = arith.addi %10, %c1 : index
      scf.yield %9, %11 : index, index
    }
    tt.return
  }
  tt.func public @nested2_use_loop_results(%arg0: !tt.ptr<f32>, %arg1: !tt.ptr<f32>, %arg2: i32, %arg3: i32) attributes {noinline = false} {
    %c0_i32 = arith.constant 0 : i32
    %c0_i32_0 = arith.constant 0 : i32
    %c0 = arith.constant 0 : index
    %c1_i32 = arith.constant 1 : i32
    %c2_i32 = arith.constant 2 : i32
    %c0_i32_1 = arith.constant 0 : i32
    %c4_i32 = arith.constant 4 : i32
    %0 = arith.index_cast %arg2 : i32 to index
    %1 = arith.index_cast %arg3 : i32 to index
    %2 = arith.muli %arg3, %c4_i32 : i32
    %3 = arith.index_cast %2 : i32 to index
    %4:2 = scf.for %arg4 = %c0_i32_1 to %c2_i32 step %c1_i32 iter_args(%arg5 = %c0, %arg6 = %c0) -> (index, index)  : i32 {
      %5 = tts.make_tptr %arg1 to sizes: [2, 2], strides: [%0, %1], offsets: [%arg6, %c0], shape: [0, 0], order: [] : <f32> to tensor<2x2x!tt.ptr<f32>>
      %6 = tts.make_tptr %arg0 to sizes: [2, 2], strides: [%0, %1], offsets: [%arg5, %c0], shape: [0, 0], order: [] : <f32> to tensor<2x2x!tt.ptr<f32>>
      %7 = "tts.load"(%6) <{operandSegmentSizes = array<i32: 1, 0, 0>, static_mask_dims = array<i64>}> : (tensor<2x2x!tt.ptr<f32>>) -> tensor<2x2xf32>
      "tts.store"(%5, %7) <{static_mask_dims = array<i64>}> : (tensor<2x2x!tt.ptr<f32>>, tensor<2x2xf32>) -> ()
      %8 = arith.addi %arg5, %3 : index
      %9 = arith.addi %arg6, %3 : index
      %10:2 = scf.for %arg7 = %c0_i32_1 to %c2_i32 step %c1_i32 iter_args(%arg8 = %8, %arg9 = %9) -> (index, index)  : i32 {
        %11 = tts.make_tptr %arg1 to sizes: [2, 2], strides: [%0, %1], offsets: [%arg9, %c0], shape: [0, 0], order: [] : <f32> to tensor<2x2x!tt.ptr<f32>>
        %12 = tts.make_tptr %arg0 to sizes: [2, 2], strides: [%0, %1], offsets: [%arg8, %c0], shape: [0, 0], order: [] : <f32> to tensor<2x2x!tt.ptr<f32>>
        %13 = "tts.load"(%12) <{operandSegmentSizes = array<i32: 1, 0, 0>, static_mask_dims = array<i64>}> : (tensor<2x2x!tt.ptr<f32>>) -> tensor<2x2xf32>
        "tts.store"(%11, %13) <{static_mask_dims = array<i64>}> : (tensor<2x2x!tt.ptr<f32>>, tensor<2x2xf32>) -> ()
        %14 = arith.addi %arg8, %3 : index
        %15 = arith.addi %arg9, %3 : index
        scf.yield %14, %15 : index, index
      }
      scf.yield %10#0, %10#1 : index, index
    }
    tt.return
  }
  tt.func public @nested3(%arg0: !tt.ptr<f32>, %arg1: !tt.ptr<f32>, %arg2: i32, %arg3: i32) attributes {noinline = false} {
    %c0_i32 = arith.constant 0 : i32
    %c0_i32_0 = arith.constant 0 : i32
    %c0 = arith.constant 0 : index
    %c1_i32 = arith.constant 1 : i32
    %c0_i32_1 = arith.constant 0 : i32
    %c2_i32 = arith.constant 2 : i32
    %0 = arith.index_cast %arg2 : i32 to index
    %1 = arith.index_cast %arg3 : i32 to index
    %2 = tts.make_tptr %arg1 to sizes: [2, 2], strides: [%0, %1], offsets: [0, 0], shape: [0, 0], order: [] : <f32> to tensor<2x2x!tt.ptr<f32>>
    %3 = arith.muli %arg3, %c2_i32 : i32
    %4 = arith.index_cast %3 : i32 to index
    %5:3 = scf.for %arg4 = %c0_i32_1 to %c2_i32 step %c1_i32 iter_args(%arg5 = %c0, %arg6 = %2, %arg7 = %c0) -> (index, tensor<2x2x!tt.ptr<f32>>, index)  : i32 {
      %6 = tts.make_tptr %arg0 to sizes: [2, 2], strides: [%0, %1], offsets: [%arg5, %c0], shape: [0, 0], order: [] : <f32> to tensor<2x2x!tt.ptr<f32>>
      %7 = "tts.load"(%6) <{operandSegmentSizes = array<i32: 1, 0, 0>, static_mask_dims = array<i64>}> : (tensor<2x2x!tt.ptr<f32>>) -> tensor<2x2xf32>
      %8:3 = scf.for %arg8 = %c0_i32_1 to %c2_i32 step %c1_i32 iter_args(%arg9 = %arg5, %arg10 = %arg6, %arg11 = %arg7) -> (index, tensor<2x2x!tt.ptr<f32>>, index)  : i32 {
        %10 = arith.addi %arg9, %4 : index
        %11 = tts.make_tptr %arg0 to sizes: [2, 2], strides: [%0, %1], offsets: [%10, %c0], shape: [0, 0], order: [] : <f32> to tensor<2x2x!tt.ptr<f32>>
        %12 = "tts.load"(%11) <{operandSegmentSizes = array<i32: 1, 0, 0>, static_mask_dims = array<i64>}> : (tensor<2x2x!tt.ptr<f32>>) -> tensor<2x2xf32>
        %13:3 = scf.for %arg12 = %c0_i32_1 to %c2_i32 step %c1_i32 iter_args(%arg13 = %10, %arg14 = %arg10, %arg15 = %arg11) -> (index, tensor<2x2x!tt.ptr<f32>>, index)  : i32 {
          %14 = tts.make_tptr %arg1 to sizes: [2, 2], strides: [%0, %1], offsets: [%arg15, %c0], shape: [0, 0], order: [] : <f32> to tensor<2x2x!tt.ptr<f32>>
          %15 = arith.addi %arg13, %4 : index
          %16 = tts.make_tptr %arg0 to sizes: [2, 2], strides: [%0, %1], offsets: [%15, %c0], shape: [0, 0], order: [] : <f32> to tensor<2x2x!tt.ptr<f32>>
          %17 = "tts.load"(%16) <{operandSegmentSizes = array<i32: 1, 0, 0>, static_mask_dims = array<i64>}> : (tensor<2x2x!tt.ptr<f32>>) -> tensor<2x2xf32>
          "tts.store"(%14, %7) <{static_mask_dims = array<i64>}> : (tensor<2x2x!tt.ptr<f32>>, tensor<2x2xf32>) -> ()
          %18 = arith.addi %arg15, %4 : index
          %19 = tts.make_tptr %arg1 to sizes: [2, 2], strides: [%0, %1], offsets: [%18, %c0], shape: [0, 0], order: [] : <f32> to tensor<2x2x!tt.ptr<f32>>
          "tts.store"(%19, %12) <{static_mask_dims = array<i64>}> : (tensor<2x2x!tt.ptr<f32>>, tensor<2x2xf32>) -> ()
          %20 = arith.addi %18, %4 : index
          %21 = tts.make_tptr %arg1 to sizes: [2, 2], strides: [%0, %1], offsets: [%20, %c0], shape: [0, 0], order: [] : <f32> to tensor<2x2x!tt.ptr<f32>>
          "tts.store"(%21, %17) <{static_mask_dims = array<i64>}> : (tensor<2x2x!tt.ptr<f32>>, tensor<2x2xf32>) -> ()
          %22 = arith.addi %20, %4 : index
          %23 = tts.make_tptr %arg1 to sizes: [2, 2], strides: [%0, %1], offsets: [%22, %c0], shape: [0, 0], order: [] : <f32> to tensor<2x2x!tt.ptr<f32>>
          scf.yield %15, %23, %22 : index, tensor<2x2x!tt.ptr<f32>>, index
        }
        scf.yield %13#0, %13#1, %13#2 : index, tensor<2x2x!tt.ptr<f32>>, index
      }
      %9 = arith.addi %8#0, %4 : index
      scf.yield %9, %8#1, %8#2 : index, tensor<2x2x!tt.ptr<f32>>, index
    }
    tt.return
  }
  tt.func public @nested_use_same_level_loop_result(%arg0: !tt.ptr<f32>, %arg1: !tt.ptr<f32>, %arg2: i32, %arg3: i32) attributes {noinline = false} {
    %c0_i32 = arith.constant 0 : i32
    %c0_i32_0 = arith.constant 0 : i32
    %c0 = arith.constant 0 : index
    %c1_i32 = arith.constant 1 : i32
    %c0_i32_1 = arith.constant 0 : i32
    %c2_i32 = arith.constant 2 : i32
    %0 = arith.index_cast %arg2 : i32 to index
    %1 = arith.index_cast %arg3 : i32 to index
    %2 = tts.make_tptr %arg1 to sizes: [2, 2], strides: [%0, %1], offsets: [0, 0], shape: [0, 0], order: [] : <f32> to tensor<2x2x!tt.ptr<f32>>
    %3 = arith.muli %arg3, %c2_i32 : i32
    %4 = arith.index_cast %3 : i32 to index
    %5:3 = scf.for %arg4 = %c0_i32_1 to %c2_i32 step %c1_i32 iter_args(%arg5 = %c0, %arg6 = %2, %arg7 = %c0) -> (index, tensor<2x2x!tt.ptr<f32>>, index)  : i32 {
      %6 = scf.for %arg8 = %c0_i32_1 to %c2_i32 step %c1_i32 iter_args(%arg9 = %arg5) -> (index)  : i32 {
        %9 = arith.addi %arg9, %4 : index
        scf.yield %9 : index
      }
      %7:3 = scf.for %arg8 = %c0_i32_1 to %c2_i32 step %c1_i32 iter_args(%arg9 = %6, %arg10 = %arg6, %arg11 = %arg7) -> (index, tensor<2x2x!tt.ptr<f32>>, index)  : i32 {
        %9 = tts.make_tptr %arg1 to sizes: [2, 2], strides: [%0, %1], offsets: [%arg11, %c0], shape: [0, 0], order: [] : <f32> to tensor<2x2x!tt.ptr<f32>>
        %10 = tts.make_tptr %arg0 to sizes: [2, 2], strides: [%0, %1], offsets: [%arg9, %c0], shape: [0, 0], order: [] : <f32> to tensor<2x2x!tt.ptr<f32>>
        %11 = "tts.load"(%10) <{operandSegmentSizes = array<i32: 1, 0, 0>, static_mask_dims = array<i64>}> : (tensor<2x2x!tt.ptr<f32>>) -> tensor<2x2xf32>
        %12 = arith.addi %arg9, %4 : index
        %13 = tts.make_tptr %arg0 to sizes: [2, 2], strides: [%0, %1], offsets: [%12, %c0], shape: [0, 0], order: [] : <f32> to tensor<2x2x!tt.ptr<f32>>
        %14 = "tts.load"(%13) <{operandSegmentSizes = array<i32: 1, 0, 0>, static_mask_dims = array<i64>}> : (tensor<2x2x!tt.ptr<f32>>) -> tensor<2x2xf32>
        "tts.store"(%9, %11) <{static_mask_dims = array<i64>}> : (tensor<2x2x!tt.ptr<f32>>, tensor<2x2xf32>) -> ()
        %15 = arith.addi %arg11, %4 : index
        %16 = arith.addi %15, %4 : index
        %17 = tts.make_tptr %arg1 to sizes: [2, 2], strides: [%0, %1], offsets: [%16, %c0], shape: [0, 0], order: [] : <f32> to tensor<2x2x!tt.ptr<f32>>
        "tts.store"(%17, %14) <{static_mask_dims = array<i64>}> : (tensor<2x2x!tt.ptr<f32>>, tensor<2x2xf32>) -> ()
        %18 = arith.addi %16, %4 : index
        %19 = tts.make_tptr %arg1 to sizes: [2, 2], strides: [%0, %1], offsets: [%18, %c0], shape: [0, 0], order: [] : <f32> to tensor<2x2x!tt.ptr<f32>>
        %20 = arith.addi %12, %4 : index
        scf.yield %20, %19, %18 : index, tensor<2x2x!tt.ptr<f32>>, index
      }
      %8 = arith.addi %7#0, %4 : index
      scf.yield %8, %7#1, %7#2 : index, tensor<2x2x!tt.ptr<f32>>, index
    }
    tt.return
  }
}
total addptr count: 0
"builtin.module"() ({
  "func.func"() <{function_type = (!tt.ptr<f32>, !tt.ptr<f32>, i32, i32, i32, i32, i32, i32, i32, i32) -> (), sym_name = "nested2_complex_body"}> ({
  ^bb0(%arg58: !tt.ptr<f32>, %arg59: !tt.ptr<f32>, %arg60: i32, %arg61: i32, %arg62: i32, %arg63: i32, %arg64: i32, %arg65: i32, %arg66: i32, %arg67: i32):
    %81 = "arith.constant"() <{value = 0 : i32}> : () -> i32
    %82 = "arith.constant"() <{value = 3 : index}> : () -> index
    %83 = "arith.constant"() <{value = 1 : index}> : () -> index
    %84 = "arith.constant"() <{value = 0 : index}> : () -> index
    %85 = "arith.constant"() <{value = 1 : i32}> : () -> i32
    %86 = "arith.constant"() <{value = 2 : i32}> : () -> i32
    %87 = "arith.index_cast"(%arg60) : (i32) -> index
    %88 = "arith.index_cast"(%arg61) : (i32) -> index
    %89 = "arith.muli"(%arg60, %86) <{overflowFlags = #arith.overflow<none>}> : (i32, i32) -> i32
    %90 = "arith.index_cast"(%89) : (i32) -> index
    %91:2 = "scf.for"(%81, %86, %85, %84, %84) ({
    ^bb0(%arg68: i32, %arg69: index, %arg70: index):
      %92 = "arith.addi"(%arg69, %83) <{overflowFlags = #arith.overflow<none>}> : (index, index) -> index
      %93 = "arith.addi"(%arg70, %83) <{overflowFlags = #arith.overflow<none>}> : (index, index) -> index
      %94:2 = "scf.for"(%81, %86, %85, %92, %93) ({
      ^bb0(%arg71: i32, %arg72: index, %arg73: index):
        %99 = "builtin.unrealized_conversion_cast"(%arg59) : (!tt.ptr<f32>) -> memref<*xf32>
        %100 = "tts.make_tptr"(%99, %87, %88, %arg73, %84) <{operandSegmentSizes = array<i32: 1, 2, 2, 0>, order = array<i32>, sizes = array<i64: 2, 2>, static_offsets = array<i64: -9223372036854775808, -9223372036854775808>, static_shape = array<i64: 0, 0>, static_strides = array<i64: -9223372036854775808, -9223372036854775808>}> : (memref<*xf32>, index, index, index, index) -> tensor<2x2x!tt.ptr<f32>>
        %101 = "builtin.unrealized_conversion_cast"(%arg58) : (!tt.ptr<f32>) -> memref<*xf32>
        %102 = "tts.make_tptr"(%101, %87, %88, %arg72, %84) <{operandSegmentSizes = array<i32: 1, 2, 2, 0>, order = array<i32>, sizes = array<i64: 2, 2>, static_offsets = array<i64: -9223372036854775808, -9223372036854775808>, static_shape = array<i64: 0, 0>, static_strides = array<i64: -9223372036854775808, -9223372036854775808>}> : (memref<*xf32>, index, index, index, index) -> tensor<2x2x!tt.ptr<f32>>
        %103 = "tts.load"(%102) <{operandSegmentSizes = array<i32: 1, 0, 0>, static_mask_dims = array<i64>}> : (tensor<2x2x!tt.ptr<f32>>) -> tensor<2x2xf32>
        "tts.store"(%100, %103) <{static_mask_dims = array<i64>}> : (tensor<2x2x!tt.ptr<f32>>, tensor<2x2xf32>) -> ()
        %104 = "arith.addi"(%arg72, %82) <{overflowFlags = #arith.overflow<none>}> : (index, index) -> index
        %105 = "arith.addi"(%arg73, %82) <{overflowFlags = #arith.overflow<none>}> : (index, index) -> index
        "scf.yield"(%104, %105) : (index, index) -> ()
      }) : (i32, i32, i32, index, index) -> (index, index)
      %95 = "arith.addi"(%arg69, %90) <{overflowFlags = #arith.overflow<none>}> : (index, index) -> index
      %96 = "arith.addi"(%95, %83) <{overflowFlags = #arith.overflow<none>}> : (index, index) -> index
      %97 = "arith.addi"(%arg70, %90) <{overflowFlags = #arith.overflow<none>}> : (index, index) -> index
      %98 = "arith.addi"(%97, %83) <{overflowFlags = #arith.overflow<none>}> : (index, index) -> index
      "scf.yield"(%96, %98) : (index, index) -> ()
    }) : (i32, i32, i32, index, index) -> (index, index)
    "func.return"() : () -> ()
  }) : () -> ()
  "func.func"() <{function_type = (!tt.ptr<f32>, !tt.ptr<f32>, i32, i32, i32, i32, i32, i32, i32, i32) -> (), sym_name = "nested2_use_loop_results"}> ({
  ^bb0(%arg42: !tt.ptr<f32>, %arg43: !tt.ptr<f32>, %arg44: i32, %arg45: i32, %arg46: i32, %arg47: i32, %arg48: i32, %arg49: i32, %arg50: i32, %arg51: i32):
    %58 = "arith.constant"() <{value = 0 : i32}> : () -> i32
    %59 = "arith.constant"() <{value = 0 : index}> : () -> index
    %60 = "arith.constant"() <{value = 1 : i32}> : () -> i32
    %61 = "arith.constant"() <{value = 2 : i32}> : () -> i32
    %62 = "arith.constant"() <{value = 4 : i32}> : () -> i32
    %63 = "arith.index_cast"(%arg44) : (i32) -> index
    %64 = "arith.index_cast"(%arg45) : (i32) -> index
    %65 = "arith.muli"(%arg45, %62) <{overflowFlags = #arith.overflow<none>}> : (i32, i32) -> i32
    %66 = "arith.index_cast"(%65) : (i32) -> index
    %67:2 = "scf.for"(%58, %61, %60, %59, %59) ({
    ^bb0(%arg52: i32, %arg53: index, %arg54: index):
      %68 = "tts.make_tptr"(%arg43, %63, %64, %arg54, %59) <{operandSegmentSizes = array<i32: 1, 2, 2, 0>, order = array<i32>, sizes = array<i64: 2, 2>, static_offsets = array<i64: -9223372036854775808, -9223372036854775808>, static_shape = array<i64: 0, 0>, static_strides = array<i64: -9223372036854775808, -9223372036854775808>}> : (!tt.ptr<f32>, index, index, index, index) -> tensor<2x2x!tt.ptr<f32>>
      %69 = "tts.make_tptr"(%arg42, %63, %64, %arg53, %59) <{operandSegmentSizes = array<i32: 1, 2, 2, 0>, order = array<i32>, sizes = array<i64: 2, 2>, static_offsets = array<i64: -9223372036854775808, -9223372036854775808>, static_shape = array<i64: 0, 0>, static_strides = array<i64: -9223372036854775808, -9223372036854775808>}> : (!tt.ptr<f32>, index, index, index, index) -> tensor<2x2x!tt.ptr<f32>>
      %70 = "tts.load"(%69) <{operandSegmentSizes = array<i32: 1, 0, 0>, static_mask_dims = array<i64>}> : (tensor<2x2x!tt.ptr<f32>>) -> tensor<2x2xf32>
      "tts.store"(%68, %70) <{static_mask_dims = array<i64>}> : (tensor<2x2x!tt.ptr<f32>>, tensor<2x2xf32>) -> ()
      %71 = "arith.addi"(%arg53, %66) <{overflowFlags = #arith.overflow<none>}> : (index, index) -> index
      %72 = "arith.addi"(%arg54, %66) <{overflowFlags = #arith.overflow<none>}> : (index, index) -> index
      %73:2 = "scf.for"(%58, %61, %60, %71, %72) ({
      ^bb0(%arg55: i32, %arg56: index, %arg57: index):
        %74 = "builtin.unrealized_conversion_cast"(%arg43) : (!tt.ptr<f32>) -> memref<*xf32>
        %75 = "tts.make_tptr"(%74, %63, %64, %arg57, %59) <{operandSegmentSizes = array<i32: 1, 2, 2, 0>, order = array<i32>, sizes = array<i64: 2, 2>, static_offsets = array<i64: -9223372036854775808, -9223372036854775808>, static_shape = array<i64: 0, 0>, static_strides = array<i64: -9223372036854775808, -9223372036854775808>}> : (memref<*xf32>, index, index, index, index) -> tensor<2x2x!tt.ptr<f32>>
        %76 = "builtin.unrealized_conversion_cast"(%arg42) : (!tt.ptr<f32>) -> memref<*xf32>
        %77 = "tts.make_tptr"(%76, %63, %64, %arg56, %59) <{operandSegmentSizes = array<i32: 1, 2, 2, 0>, order = array<i32>, sizes = array<i64: 2, 2>, static_offsets = array<i64: -9223372036854775808, -9223372036854775808>, static_shape = array<i64: 0, 0>, static_strides = array<i64: -9223372036854775808, -9223372036854775808>}> : (memref<*xf32>, index, index, index, index) -> tensor<2x2x!tt.ptr<f32>>
        %78 = "tts.load"(%77) <{operandSegmentSizes = array<i32: 1, 0, 0>, static_mask_dims = array<i64>}> : (tensor<2x2x!tt.ptr<f32>>) -> tensor<2x2xf32>
        "tts.store"(%75, %78) <{static_mask_dims = array<i64>}> : (tensor<2x2x!tt.ptr<f32>>, tensor<2x2xf32>) -> ()
        %79 = "arith.addi"(%arg56, %66) <{overflowFlags = #arith.overflow<none>}> : (index, index) -> index
        %80 = "arith.addi"(%arg57, %66) <{overflowFlags = #arith.overflow<none>}> : (index, index) -> index
        "scf.yield"(%79, %80) : (index, index) -> ()
      }) : (i32, i32, i32, index, index) -> (index, index)
      "scf.yield"(%73#0, %73#1) : (index, index) -> ()
    }) : (i32, i32, i32, index, index) -> (index, index)
    "func.return"() : () -> ()
  }) : () -> ()
  "func.func"() <{function_type = (!tt.ptr<f32>, !tt.ptr<f32>, i32, i32, i32, i32, i32, i32, i32, i32) -> (), sym_name = "nested3"}> ({
  ^bb0(%arg20: !tt.ptr<f32>, %arg21: !tt.ptr<f32>, %arg22: i32, %arg23: i32, %arg24: i32, %arg25: i32, %arg26: i32, %arg27: i32, %arg28: i32, %arg29: i32):
    %28 = "arith.constant"() <{value = 0 : i32}> : () -> i32
    %29 = "arith.constant"() <{value = 0 : index}> : () -> index
    %30 = "arith.constant"() <{value = 1 : i32}> : () -> i32
    %31 = "arith.constant"() <{value = 2 : i32}> : () -> i32
    %32 = "arith.index_cast"(%arg22) : (i32) -> index
    %33 = "arith.index_cast"(%arg23) : (i32) -> index
    %34 = "tts.make_tptr"(%arg21, %32, %33) <{operandSegmentSizes = array<i32: 1, 2, 0, 0>, order = array<i32>, sizes = array<i64: 2, 2>, static_offsets = array<i64: 0, 0>, static_shape = array<i64: 0, 0>, static_strides = array<i64: -9223372036854775808, -9223372036854775808>}> : (!tt.ptr<f32>, index, index) -> tensor<2x2x!tt.ptr<f32>>
    %35 = "arith.muli"(%arg23, %31) <{overflowFlags = #arith.overflow<none>}> : (i32, i32) -> i32
    %36 = "arith.index_cast"(%35) : (i32) -> index
    %37:3 = "scf.for"(%28, %31, %30, %29, %34, %29) ({
    ^bb0(%arg30: i32, %arg31: index, %arg32: tensor<2x2x!tt.ptr<f32>>, %arg33: index):
      %38 = "tts.make_tptr"(%arg20, %32, %33, %arg31, %29) <{operandSegmentSizes = array<i32: 1, 2, 2, 0>, order = array<i32>, sizes = array<i64: 2, 2>, static_offsets = array<i64: -9223372036854775808, -9223372036854775808>, static_shape = array<i64: 0, 0>, static_strides = array<i64: -9223372036854775808, -9223372036854775808>}> : (!tt.ptr<f32>, index, index, index, index) -> tensor<2x2x!tt.ptr<f32>>
      %39 = "tts.load"(%38) <{operandSegmentSizes = array<i32: 1, 0, 0>, static_mask_dims = array<i64>}> : (tensor<2x2x!tt.ptr<f32>>) -> tensor<2x2xf32>
      %40:3 = "scf.for"(%28, %31, %30, %arg31, %arg32, %arg33) ({
      ^bb0(%arg34: i32, %arg35: index, %arg36: tensor<2x2x!tt.ptr<f32>>, %arg37: index):
        %42 = "arith.addi"(%arg35, %36) <{overflowFlags = #arith.overflow<none>}> : (index, index) -> index
        %43 = "tts.make_tptr"(%arg20, %32, %33, %42, %29) <{operandSegmentSizes = array<i32: 1, 2, 2, 0>, order = array<i32>, sizes = array<i64: 2, 2>, static_offsets = array<i64: -9223372036854775808, -9223372036854775808>, static_shape = array<i64: 0, 0>, static_strides = array<i64: -9223372036854775808, -9223372036854775808>}> : (!tt.ptr<f32>, index, index, index, index) -> tensor<2x2x!tt.ptr<f32>>
        %44 = "tts.load"(%43) <{operandSegmentSizes = array<i32: 1, 0, 0>, static_mask_dims = array<i64>}> : (tensor<2x2x!tt.ptr<f32>>) -> tensor<2x2xf32>
        %45:3 = "scf.for"(%28, %31, %30, %42, %arg36, %arg37) ({
        ^bb0(%arg38: i32, %arg39: index, %arg40: tensor<2x2x!tt.ptr<f32>>, %arg41: index):
          %46 = "tts.make_tptr"(%arg21, %32, %33, %arg41, %29) <{operandSegmentSizes = array<i32: 1, 2, 2, 0>, order = array<i32>, sizes = array<i64: 2, 2>, static_offsets = array<i64: -9223372036854775808, -9223372036854775808>, static_shape = array<i64: 0, 0>, static_strides = array<i64: -9223372036854775808, -9223372036854775808>}> : (!tt.ptr<f32>, index, index, index, index) -> tensor<2x2x!tt.ptr<f32>>
          %47 = "arith.addi"(%arg39, %36) <{overflowFlags = #arith.overflow<none>}> : (index, index) -> index
          %48 = "builtin.unrealized_conversion_cast"(%arg20) : (!tt.ptr<f32>) -> memref<*xf32>
          %49 = "tts.make_tptr"(%48, %32, %33, %47, %29) <{operandSegmentSizes = array<i32: 1, 2, 2, 0>, order = array<i32>, sizes = array<i64: 2, 2>, static_offsets = array<i64: -9223372036854775808, -9223372036854775808>, static_shape = array<i64: 0, 0>, static_strides = array<i64: -9223372036854775808, -9223372036854775808>}> : (memref<*xf32>, index, index, index, index) -> tensor<2x2x!tt.ptr<f32>>
          %50 = "tts.load"(%49) <{operandSegmentSizes = array<i32: 1, 0, 0>, static_mask_dims = array<i64>}> : (tensor<2x2x!tt.ptr<f32>>) -> tensor<2x2xf32>
          "tts.store"(%46, %39) <{static_mask_dims = array<i64>}> : (tensor<2x2x!tt.ptr<f32>>, tensor<2x2xf32>) -> ()
          %51 = "arith.addi"(%arg41, %36) <{overflowFlags = #arith.overflow<none>}> : (index, index) -> index
          %52 = "tts.make_tptr"(%arg21, %32, %33, %51, %29) <{operandSegmentSizes = array<i32: 1, 2, 2, 0>, order = array<i32>, sizes = array<i64: 2, 2>, static_offsets = array<i64: -9223372036854775808, -9223372036854775808>, static_shape = array<i64: 0, 0>, static_strides = array<i64: -9223372036854775808, -9223372036854775808>}> : (!tt.ptr<f32>, index, index, index, index) -> tensor<2x2x!tt.ptr<f32>>
          "tts.store"(%52, %44) <{static_mask_dims = array<i64>}> : (tensor<2x2x!tt.ptr<f32>>, tensor<2x2xf32>) -> ()
          %53 = "arith.addi"(%51, %36) <{overflowFlags = #arith.overflow<none>}> : (index, index) -> index
          %54 = "tts.make_tptr"(%arg21, %32, %33, %53, %29) <{operandSegmentSizes = array<i32: 1, 2, 2, 0>, order = array<i32>, sizes = array<i64: 2, 2>, static_offsets = array<i64: -9223372036854775808, -9223372036854775808>, static_shape = array<i64: 0, 0>, static_strides = array<i64: -9223372036854775808, -9223372036854775808>}> : (!tt.ptr<f32>, index, index, index, index) -> tensor<2x2x!tt.ptr<f32>>
          "tts.store"(%54, %50) <{static_mask_dims = array<i64>}> : (tensor<2x2x!tt.ptr<f32>>, tensor<2x2xf32>) -> ()
          %55 = "arith.addi"(%53, %36) <{overflowFlags = #arith.overflow<none>}> : (index, index) -> index
          %56 = "builtin.unrealized_conversion_cast"(%arg21) : (!tt.ptr<f32>) -> memref<*xf32>
          %57 = "tts.make_tptr"(%56, %32, %33, %55, %29) <{operandSegmentSizes = array<i32: 1, 2, 2, 0>, order = array<i32>, sizes = array<i64: 2, 2>, static_offsets = array<i64: -9223372036854775808, -9223372036854775808>, static_shape = array<i64: 0, 0>, static_strides = array<i64: -9223372036854775808, -9223372036854775808>}> : (memref<*xf32>, index, index, index, index) -> tensor<2x2x!tt.ptr<f32>>
          "scf.yield"(%47, %57, %55) : (index, tensor<2x2x!tt.ptr<f32>>, index) -> ()
        }) : (i32, i32, i32, index, tensor<2x2x!tt.ptr<f32>>, index) -> (index, tensor<2x2x!tt.ptr<f32>>, index)
        "scf.yield"(%45#0, %45#1, %45#2) : (index, tensor<2x2x!tt.ptr<f32>>, index) -> ()
      }) : (i32, i32, i32, index, tensor<2x2x!tt.ptr<f32>>, index) -> (index, tensor<2x2x!tt.ptr<f32>>, index)
      %41 = "arith.addi"(%40#0, %36) <{overflowFlags = #arith.overflow<none>}> : (index, index) -> index
      "scf.yield"(%41, %40#1, %40#2) : (index, tensor<2x2x!tt.ptr<f32>>, index) -> ()
    }) : (i32, i32, i32, index, tensor<2x2x!tt.ptr<f32>>, index) -> (index, tensor<2x2x!tt.ptr<f32>>, index)
    "func.return"() : () -> ()
  }) : () -> ()
  "func.func"() <{function_type = (!tt.ptr<f32>, !tt.ptr<f32>, i32, i32, i32, i32, i32, i32, i32, i32) -> (), sym_name = "nested_use_same_level_loop_result"}> ({
  ^bb0(%arg0: !tt.ptr<f32>, %arg1: !tt.ptr<f32>, %arg2: i32, %arg3: i32, %arg4: i32, %arg5: i32, %arg6: i32, %arg7: i32, %arg8: i32, %arg9: i32):
    %0 = "arith.constant"() <{value = 0 : i32}> : () -> i32
    %1 = "arith.constant"() <{value = 0 : index}> : () -> index
    %2 = "arith.constant"() <{value = 1 : i32}> : () -> i32
    %3 = "arith.constant"() <{value = 2 : i32}> : () -> i32
    %4 = "arith.index_cast"(%arg2) : (i32) -> index
    %5 = "arith.index_cast"(%arg3) : (i32) -> index
    %6 = "tts.make_tptr"(%arg1, %4, %5) <{operandSegmentSizes = array<i32: 1, 2, 0, 0>, order = array<i32>, sizes = array<i64: 2, 2>, static_offsets = array<i64: 0, 0>, static_shape = array<i64: 0, 0>, static_strides = array<i64: -9223372036854775808, -9223372036854775808>}> : (!tt.ptr<f32>, index, index) -> tensor<2x2x!tt.ptr<f32>>
    %7 = "arith.muli"(%arg3, %3) <{overflowFlags = #arith.overflow<none>}> : (i32, i32) -> i32
    %8 = "arith.index_cast"(%7) : (i32) -> index
    %9:3 = "scf.for"(%0, %3, %2, %1, %6, %1) ({
    ^bb0(%arg10: i32, %arg11: index, %arg12: tensor<2x2x!tt.ptr<f32>>, %arg13: index):
      %10 = "scf.for"(%0, %3, %2, %arg11) ({
      ^bb0(%arg18: i32, %arg19: index):
        %27 = "arith.addi"(%arg19, %8) <{overflowFlags = #arith.overflow<none>}> : (index, index) -> index
        "scf.yield"(%27) : (index) -> ()
      }) : (i32, i32, i32, index) -> index
      %11:3 = "scf.for"(%0, %3, %2, %10, %arg12, %arg13) ({
      ^bb0(%arg14: i32, %arg15: index, %arg16: tensor<2x2x!tt.ptr<f32>>, %arg17: index):
        %13 = "tts.make_tptr"(%arg1, %4, %5, %arg17, %1) <{operandSegmentSizes = array<i32: 1, 2, 2, 0>, order = array<i32>, sizes = array<i64: 2, 2>, static_offsets = array<i64: -9223372036854775808, -9223372036854775808>, static_shape = array<i64: 0, 0>, static_strides = array<i64: -9223372036854775808, -9223372036854775808>}> : (!tt.ptr<f32>, index, index, index, index) -> tensor<2x2x!tt.ptr<f32>>
        %14 = "tts.make_tptr"(%arg0, %4, %5, %arg15, %1) <{operandSegmentSizes = array<i32: 1, 2, 2, 0>, order = array<i32>, sizes = array<i64: 2, 2>, static_offsets = array<i64: -9223372036854775808, -9223372036854775808>, static_shape = array<i64: 0, 0>, static_strides = array<i64: -9223372036854775808, -9223372036854775808>}> : (!tt.ptr<f32>, index, index, index, index) -> tensor<2x2x!tt.ptr<f32>>
        %15 = "tts.load"(%14) <{operandSegmentSizes = array<i32: 1, 0, 0>, static_mask_dims = array<i64>}> : (tensor<2x2x!tt.ptr<f32>>) -> tensor<2x2xf32>
        %16 = "arith.addi"(%arg15, %8) <{overflowFlags = #arith.overflow<none>}> : (index, index) -> index
        %17 = "builtin.unrealized_conversion_cast"(%arg0) : (!tt.ptr<f32>) -> memref<*xf32>
        %18 = "tts.make_tptr"(%17, %4, %5, %16, %1) <{operandSegmentSizes = array<i32: 1, 2, 2, 0>, order = array<i32>, sizes = array<i64: 2, 2>, static_offsets = array<i64: -9223372036854775808, -9223372036854775808>, static_shape = array<i64: 0, 0>, static_strides = array<i64: -9223372036854775808, -9223372036854775808>}> : (memref<*xf32>, index, index, index, index) -> tensor<2x2x!tt.ptr<f32>>
        %19 = "tts.load"(%18) <{operandSegmentSizes = array<i32: 1, 0, 0>, static_mask_dims = array<i64>}> : (tensor<2x2x!tt.ptr<f32>>) -> tensor<2x2xf32>
        "tts.store"(%13, %15) <{static_mask_dims = array<i64>}> : (tensor<2x2x!tt.ptr<f32>>, tensor<2x2xf32>) -> ()
        %20 = "arith.addi"(%arg17, %8) <{overflowFlags = #arith.overflow<none>}> : (index, index) -> index
        %21 = "arith.addi"(%20, %8) <{overflowFlags = #arith.overflow<none>}> : (index, index) -> index
        %22 = "tts.make_tptr"(%arg1, %4, %5, %21, %1) <{operandSegmentSizes = array<i32: 1, 2, 2, 0>, order = array<i32>, sizes = array<i64: 2, 2>, static_offsets = array<i64: -9223372036854775808, -9223372036854775808>, static_shape = array<i64: 0, 0>, static_strides = array<i64: -9223372036854775808, -9223372036854775808>}> : (!tt.ptr<f32>, index, index, index, index) -> tensor<2x2x!tt.ptr<f32>>
        "tts.store"(%22, %19) <{static_mask_dims = array<i64>}> : (tensor<2x2x!tt.ptr<f32>>, tensor<2x2xf32>) -> ()
        %23 = "arith.addi"(%21, %8) <{overflowFlags = #arith.overflow<none>}> : (index, index) -> index
        %24 = "builtin.unrealized_conversion_cast"(%arg1) : (!tt.ptr<f32>) -> memref<*xf32>
        %25 = "tts.make_tptr"(%24, %4, %5, %23, %1) <{operandSegmentSizes = array<i32: 1, 2, 2, 0>, order = array<i32>, sizes = array<i64: 2, 2>, static_offsets = array<i64: -9223372036854775808, -9223372036854775808>, static_shape = array<i64: 0, 0>, static_strides = array<i64: -9223372036854775808, -9223372036854775808>}> : (memref<*xf32>, index, index, index, index) -> tensor<2x2x!tt.ptr<f32>>
        %26 = "arith.addi"(%16, %8) <{overflowFlags = #arith.overflow<none>}> : (index, index) -> index
        "scf.yield"(%26, %25, %23) : (index, tensor<2x2x!tt.ptr<f32>>, index) -> ()
      }) : (i32, i32, i32, index, tensor<2x2x!tt.ptr<f32>>, index) -> (index, tensor<2x2x!tt.ptr<f32>>, index)
      %12 = "arith.addi"(%11#0, %8) <{overflowFlags = #arith.overflow<none>}> : (index, index) -> index
      "scf.yield"(%12, %11#1, %11#2) : (index, tensor<2x2x!tt.ptr<f32>>, index) -> ()
    }) : (i32, i32, i32, index, tensor<2x2x!tt.ptr<f32>>, index) -> (index, tensor<2x2x!tt.ptr<f32>>, index)
    "func.return"() : () -> ()
  }) : () -> ()
}) : () -> ()
within split at /home/nhat/github/triton_shared/test/Conversion/StructuredToMemref/nested_loops.mlir:1 offset :104:11: error: failed to legalize unresolved materialization from ('memref<2x2xf32, strided<[?, ?]>>') to 'tensor<2x2x!tt.ptr<f32>>' that remained live after conversion
    %15 = tt.addptr %14, %8 : tensor<2x2x!tt.ptr<f32>>, tensor<2x2xi32>
          ^
within split at /home/nhat/github/triton_shared/test/Conversion/StructuredToMemref/nested_loops.mlir:1 offset :104:11: note: see current operation: %7 = "builtin.unrealized_conversion_cast"(%6) : (memref<2x2xf32, strided<[?, ?]>>) -> tensor<2x2x!tt.ptr<f32>>
within split at /home/nhat/github/triton_shared/test/Conversion/StructuredToMemref/nested_loops.mlir:1 offset :109:13: note: see existing live user here: 
%10:3 = "scf.for"(%0, %3, %2, %1, %7, %1) ({
^bb0(%arg10: i32, %arg11: index, %arg12: tensor<2x2x!tt.ptr<f32>>, %arg13: index):
  %11 = "arith.addi"(%arg11, %1) <{overflowFlags = #arith.overflow<none>}> : (index, index) -> index
  %12 = "memref.reinterpret_cast"(%arg0, %11, %4, %5) <{operandSegmentSizes = array<i32: 1, 1, 0, 2>, static_offsets = array<i64: -9223372036854775808>, static_sizes = array<i64: 2, 2>, static_strides = array<i64: -9223372036854775808, -9223372036854775808>}> : (!tt.ptr<f32>, index, index, index) -> memref<2x2xf32, strided<[?, ?], offset: ?>>
  %13 = "memref.alloc"() <{operandSegmentSizes = array<i32: 0, 0>}> : () -> memref<2x2xf32>
  "memref.copy"(%12, %13) : (memref<2x2xf32, strided<[?, ?], offset: ?>>, memref<2x2xf32>) -> ()
  %14 = "bufferization.to_tensor"(%13) <{restrict, writable}> : (memref<2x2xf32>) -> tensor<2x2xf32>
  %15:3 = "scf.for"(%0, %3, %2, %arg11, %arg12, %arg13) ({
  ^bb0(%arg14: i32, %arg15: index, %arg16: tensor<2x2x!tt.ptr<f32>>, %arg17: index):
    %17 = "arith.addi"(%arg15, %9) <{overflowFlags = #arith.overflow<none>}> : (index, index) -> index
    %18 = "arith.addi"(%17, %1) <{overflowFlags = #arith.overflow<none>}> : (index, index) -> index
    %19 = "memref.reinterpret_cast"(%arg0, %18, %4, %5) <{operandSegmentSizes = array<i32: 1, 1, 0, 2>, static_offsets = array<i64: -9223372036854775808>, static_sizes = array<i64: 2, 2>, static_strides = array<i64: -9223372036854775808, -9223372036854775808>}> : (!tt.ptr<f32>, index, index, index) -> memref<2x2xf32, strided<[?, ?], offset: ?>>
    %20 = "memref.alloc"() <{operandSegmentSizes = array<i32: 0, 0>}> : () -> memref<2x2xf32>
    "memref.copy"(%19, %20) : (memref<2x2xf32, strided<[?, ?], offset: ?>>, memref<2x2xf32>) -> ()
    %21 = "bufferization.to_tensor"(%20) <{restrict, writable}> : (memref<2x2xf32>) -> tensor<2x2xf32>
    %22:3 = "scf.for"(%0, %3, %2, %17, %arg16, %arg17) ({
    ^bb0(%arg18: i32, %arg19: index, %arg20: tensor<2x2x!tt.ptr<f32>>, %arg21: index):
      %23 = "arith.addi"(%arg21, %1) <{overflowFlags = #arith.overflow<none>}> : (index, index) -> index
      %24 = "memref.reinterpret_cast"(%arg1, %23, %4, %5) <{operandSegmentSizes = array<i32: 1, 1, 0, 2>, static_offsets = array<i64: -9223372036854775808>, static_sizes = array<i64: 2, 2>, static_strides = array<i64: -9223372036854775808, -9223372036854775808>}> : (!tt.ptr<f32>, index, index, index) -> memref<2x2xf32, strided<[?, ?], offset: ?>>
      %25 = "arith.addi"(%arg19, %9) <{overflowFlags = #arith.overflow<none>}> : (index, index) -> index
      %26 = "builtin.unrealized_conversion_cast"(%arg0) : (!tt.ptr<f32>) -> memref<*xf32>
      %27 = "arith.addi"(%25, %1) <{overflowFlags = #arith.overflow<none>}> : (index, index) -> index
      %28 = "memref.reinterpret_cast"(%26, %27, %4, %5) <{operandSegmentSizes = array<i32: 1, 1, 0, 2>, static_offsets = array<i64: -9223372036854775808>, static_sizes = array<i64: 2, 2>, static_strides = array<i64: -9223372036854775808, -9223372036854775808>}> : (memref<*xf32>, index, index, index) -> memref<2x2xf32, strided<[?, ?], offset: ?>>
      %29 = "memref.alloc"() <{operandSegmentSizes = array<i32: 0, 0>}> : () -> memref<2x2xf32>
      "memref.copy"(%28, %29) : (memref<2x2xf32, strided<[?, ?], offset: ?>>, memref<2x2xf32>) -> ()
      %30 = "bufferization.to_tensor"(%29) <{restrict, writable}> : (memref<2x2xf32>) -> tensor<2x2xf32>
      "bufferization.materialize_in_destination"(%14, %24) <{writable}> : (tensor<2x2xf32>, memref<2x2xf32, strided<[?, ?], offset: ?>>) -> ()
      %31 = "arith.addi"(%arg21, %9) <{overflowFlags = #arith.overflow<none>}> : (index, index) -> index
      %32 = "arith.addi"(%31, %1) <{overflowFlags = #arith.overflow<none>}> : (index, index) -> index
      %33 = "memref.reinterpret_cast"(%arg1, %32, %4, %5) <{operandSegmentSizes = array<i32: 1, 1, 0, 2>, static_offsets = array<i64: -9223372036854775808>, static_sizes = array<i64: 2, 2>, static_strides = array<i64: -9223372036854775808, -9223372036854775808>}> : (!tt.ptr<f32>, index, index, index) -> memref<2x2xf32, strided<[?, ?], offset: ?>>
      "bufferization.materialize_in_destination"(%21, %33) <{writable}> : (tensor<2x2xf32>, memref<2x2xf32, strided<[?, ?], offset: ?>>) -> ()
      %34 = "arith.addi"(%31, %9) <{overflowFlags = #arith.overflow<none>}> : (index, index) -> index
      %35 = "arith.addi"(%34, %1) <{overflowFlags = #arith.overflow<none>}> : (index, index) -> index
      %36 = "memref.reinterpret_cast"(%arg1, %35, %4, %5) <{operandSegmentSizes = array<i32: 1, 1, 0, 2>, static_offsets = array<i64: -9223372036854775808>, static_sizes = array<i64: 2, 2>, static_strides = array<i64: -9223372036854775808, -9223372036854775808>}> : (!tt.ptr<f32>, index, index, index) -> memref<2x2xf32, strided<[?, ?], offset: ?>>
      "bufferization.materialize_in_destination"(%30, %36) <{writable}> : (tensor<2x2xf32>, memref<2x2xf32, strided<[?, ?], offset: ?>>) -> ()
      %37 = "arith.addi"(%34, %9) <{overflowFlags = #arith.overflow<none>}> : (index, index) -> index
      %38 = "builtin.unrealized_conversion_cast"(%arg1) : (!tt.ptr<f32>) -> memref<*xf32>
      %39 = "arith.addi"(%37, %1) <{overflowFlags = #arith.overflow<none>}> : (index, index) -> index
      %40 = "memref.reinterpret_cast"(%38, %39, %4, %5) <{operandSegmentSizes = array<i32: 1, 1, 0, 2>, static_offsets = array<i64: -9223372036854775808>, static_sizes = array<i64: 2, 2>, static_strides = array<i64: -9223372036854775808, -9223372036854775808>}> : (memref<*xf32>, index, index, index) -> memref<2x2xf32, strided<[?, ?], offset: ?>>
      %41 = "builtin.unrealized_conversion_cast"(%40) : (memref<2x2xf32, strided<[?, ?], offset: ?>>) -> tensor<2x2x!tt.ptr<f32>>
      "scf.yield"(%25, %41, %37) : (index, tensor<2x2x!tt.ptr<f32>>, index) -> ()
    }) : (i32, i32, i32, index, tensor<2x2x!tt.ptr<f32>>, index) -> (index, tensor<2x2x!tt.ptr<f32>>, index)
    "scf.yield"(%22#0, %22#1, %22#2) : (index, tensor<2x2x!tt.ptr<f32>>, index) -> ()
  }) : (i32, i32, i32, index, tensor<2x2x!tt.ptr<f32>>, index) -> (index, tensor<2x2x!tt.ptr<f32>>, index)
  %16 = "arith.addi"(%15#0, %9) <{overflowFlags = #arith.overflow<none>}> : (index, index) -> index
  "scf.yield"(%16, %15#1, %15#2) : (index, tensor<2x2x!tt.ptr<f32>>, index) -> ()
}) : (i32, i32, i32, index, tensor<2x2x!tt.ptr<f32>>, index) -> (index, tensor<2x2x!tt.ptr<f32>>, index)
    %20:2 = scf.for %arg4 = %c0_i32 to %c2_i32 step %c1_i32 iter_args(%arg5 = %11, %arg6 = %15) -> (tensor<2x2x!tt.ptr<f32>>, tensor<2x2x!tt.ptr<f32>>)  : i32 {
            ^
FileCheck error: '<stdin>' is empty.
FileCheck command line:  FileCheck /home/nhat/github/triton_shared/test/Conversion/StructuredToMemref/nested_loops.mlir

--

********************
PASS: TRITON-SHARED :: Conversion/StructuredToMemref/convert_argmin_argmax_2d.mlir (12 of 215)
FAIL: TRITON-SHARED :: Conversion/StructuredToMemref/kernel-05-layer-norm-fwd.mlir (13 of 215)
******************** TEST 'TRITON-SHARED :: Conversion/StructuredToMemref/kernel-05-layer-norm-fwd.mlir' FAILED ********************
Exit Code: 2

Command Output (stderr):
--
RUN: at line 1: /home/nhat/github/triton_shared/triton/python/build/cmake.linux-x86_64-cpython-3.8/third_party/triton_shared/tools/triton-shared-opt/triton-shared-opt --split-input-file --triton-to-linalg-experimental /home/nhat/github/triton_shared/test/Conversion/StructuredToMemref/kernel-05-layer-norm-fwd.mlir | FileCheck /home/nhat/github/triton_shared/test/Conversion/StructuredToMemref/kernel-05-layer-norm-fwd.mlir
+ /home/nhat/github/triton_shared/triton/python/build/cmake.linux-x86_64-cpython-3.8/third_party/triton_shared/tools/triton-shared-opt/triton-shared-opt --split-input-file --triton-to-linalg-experimental /home/nhat/github/triton_shared/test/Conversion/StructuredToMemref/kernel-05-layer-norm-fwd.mlir
+ FileCheck /home/nhat/github/triton_shared/test/Conversion/StructuredToMemref/kernel-05-layer-norm-fwd.mlir
within split at /home/nhat/github/triton_shared/test/Conversion/StructuredToMemref/kernel-05-layer-norm-fwd.mlir:1 offset :59:5: remark: PtrAnalysis: scalar storeOp will not be rewritten
    tt.store %22, %11 : !tt.ptr<f32>
    ^
within split at /home/nhat/github/triton_shared/test/Conversion/StructuredToMemref/kernel-05-layer-norm-fwd.mlir:1 offset :59:5: note: see current operation: tt.store %24, %13 : !tt.ptr<f32>
within split at /home/nhat/github/triton_shared/test/Conversion/StructuredToMemref/kernel-05-layer-norm-fwd.mlir:1 offset :59:5: remark: PtrAnalysis: Failed to rewrite StoreOp
    tt.store %22, %11 : !tt.ptr<f32>
    ^
within split at /home/nhat/github/triton_shared/test/Conversion/StructuredToMemref/kernel-05-layer-norm-fwd.mlir:1 offset :59:5: note: see current operation: tt.store %24, %13 : !tt.ptr<f32>
within split at /home/nhat/github/triton_shared/test/Conversion/StructuredToMemref/kernel-05-layer-norm-fwd.mlir:1 offset :61:5: remark: PtrAnalysis: scalar storeOp will not be rewritten
    tt.store %23, %21 : !tt.ptr<f32>
    ^
within split at /home/nhat/github/triton_shared/test/Conversion/StructuredToMemref/kernel-05-layer-norm-fwd.mlir:1 offset :61:5: note: see current operation: tt.store %26, %24 : !tt.ptr<f32>
within split at /home/nhat/github/triton_shared/test/Conversion/StructuredToMemref/kernel-05-layer-norm-fwd.mlir:1 offset :61:5: remark: PtrAnalysis: Failed to rewrite StoreOp
    tt.store %23, %21 : !tt.ptr<f32>
    ^
within split at /home/nhat/github/triton_shared/test/Conversion/StructuredToMemref/kernel-05-layer-norm-fwd.mlir:1 offset :61:5: note: see current operation: tt.store %26, %24 : !tt.ptr<f32>
"builtin.module"() ({
  "tt.func"() <{function_type = (!tt.ptr<f32>, !tt.ptr<f32>, !tt.ptr<f32>, !tt.ptr<f32>, !tt.ptr<f32>, !tt.ptr<f32>, i32, i32, f32) -> (), sym_name = "_layer_norm_fwd_fused_0123456789", sym_visibility = "public"}> ({
  ^bb0(%arg0: !tt.ptr<f32>, %arg1: !tt.ptr<f32>, %arg2: !tt.ptr<f32>, %arg3: !tt.ptr<f32>, %arg4: !tt.ptr<f32>, %arg5: !tt.ptr<f32>, %arg6: i32, %arg7: i32, %arg8: f32):
    %0 = "arith.constant"() <{value = 0 : i32}> : () -> i32
    %1 = "arith.constant"() <{value = 0 : i32}> : () -> i32
    %2 = "arith.constant"() <{value = 0 : i32}> : () -> i32
    %3 = "arith.constant"() <{value = 0 : i32}> : () -> i32
    %4 = "arith.constant"() <{value = 0 : i32}> : () -> i32
    %5 = "arith.constant"() <{value = 0 : i32}> : () -> i32
    %6 = "arith.constant"() <{value = 0.000000e+00 : f32}> : () -> f32
    %7 = "arith.constant"() <{value = 256 : index}> : () -> index
    %8 = "arith.constant"() <{value = dense<0.000000e+00> : tensor<256xf32>}> : () -> tensor<256xf32>
    %9 = "arith.constant"() <{value = 256 : i32}> : () -> i32
    %10 = "arith.constant"() <{value = 0 : i32}> : () -> i32
    %11 = "arith.constant"() <{value = 1.000000e+00 : f32}> : () -> f32
    %12 = "tt.get_program_id"() <{axis = 0 : i32}> : () -> i32
    %13 = "arith.muli"(%12, %arg6) <{overflowFlags = #arith.overflow<none>}> : (i32, i32) -> i32
    %14 = "arith.index_cast"(%13) : (i32) -> index
    %15 = "tt.make_range"() <{end = 256 : i32, start = 0 : i32}> : () -> tensor<256xi32>
    %16 = "tt.splat"(%arg7) : (i32) -> tensor<256xi32>
    %17 = "scf.for"(%10, %arg7, %9, %8) ({
    ^bb0(%arg16: i32, %arg17: tensor<256xf32>):
      %65 = "arith.index_cast"(%arg16) : (i32) -> index
      %66 = "arith.addi"(%14, %65) <{overflowFlags = #arith.overflow<none>}> : (index, index) -> index
      %67 = "tts.make_tptr"(%arg0, %66) <{operandSegmentSizes = array<i32: 1, 0, 1, 0>, order = array<i32>, sizes = array<i64: 256>, static_offsets = array<i64: -9223372036854775808>, static_shape = array<i64: 0>, static_strides = array<i64: 1>}> : (!tt.ptr<f32>, index) -> tensor<256x!tt.ptr<f32>>
      %68 = "arith.addi"(%65, %7) <{overflowFlags = #arith.overflow<none>}> : (index, index) -> index
      %69 = "arith.index_cast"(%arg7) : (i32) -> index
      %70 = "arith.minsi"(%68, %69) : (index, index) -> index
      %71 = "arith.subi"(%70, %65) <{overflowFlags = #arith.overflow<none>}> : (index, index) -> index
      %72 = "tts.load"(%67, %71, %6) <{operandSegmentSizes = array<i32: 1, 1, 1>, static_mask_dims = array<i64: -9223372036854775808>}> : (tensor<256x!tt.ptr<f32>>, index, f32) -> tensor<256xf32>
      %73 = "arith.addf"(%arg17, %72) <{fastmath = #arith.fastmath<none>}> : (tensor<256xf32>, tensor<256xf32>) -> tensor<256xf32>
      "scf.yield"(%73) : (tensor<256xf32>) -> ()
    }) : (i32, i32, i32, tensor<256xf32>) -> tensor<256xf32>
    %18 = "tt.reduce"(%17) <{axis = 0 : i32}> ({
    ^bb0(%arg14: f32, %arg15: f32):
      %64 = "arith.addf"(%arg14, %arg15) <{fastmath = #arith.fastmath<none>}> : (f32, f32) -> f32
      "tt.reduce.return"(%64) : (f32) -> ()
    }) : (tensor<256xf32>) -> f32
    %19 = "arith.sitofp"(%arg7) : (i32) -> f32
    %20 = "arith.divf"(%18, %19) <{fastmath = #arith.fastmath<none>}> : (f32, f32) -> f32
    %21 = "tt.splat"(%20) : (f32) -> tensor<256xf32>
    %22 = "scf.for"(%10, %arg7, %9, %8) ({
    ^bb0(%arg12: i32, %arg13: tensor<256xf32>):
      %49 = "tt.splat"(%arg12) : (i32) -> tensor<256xi32>
      %50 = "arith.addi"(%49, %15) <{overflowFlags = #arith.overflow<none>}> : (tensor<256xi32>, tensor<256xi32>) -> tensor<256xi32>
      %51 = "arith.cmpi"(%50, %16) <{predicate = 2 : i64}> : (tensor<256xi32>, tensor<256xi32>) -> tensor<256xi1>
      %52 = "arith.index_cast"(%arg12) : (i32) -> index
      %53 = "arith.addi"(%14, %52) <{overflowFlags = #arith.overflow<none>}> : (index, index) -> index
      %54 = "tts.make_tptr"(%arg0, %53) <{operandSegmentSizes = array<i32: 1, 0, 1, 0>, order = array<i32>, sizes = array<i64: 256>, static_offsets = array<i64: -9223372036854775808>, static_shape = array<i64: 0>, static_strides = array<i64: 1>}> : (!tt.ptr<f32>, index) -> tensor<256x!tt.ptr<f32>>
      %55 = "arith.addi"(%52, %7) <{overflowFlags = #arith.overflow<none>}> : (index, index) -> index
      %56 = "arith.index_cast"(%arg7) : (i32) -> index
      %57 = "arith.minsi"(%55, %56) : (index, index) -> index
      %58 = "arith.subi"(%57, %52) <{overflowFlags = #arith.overflow<none>}> : (index, index) -> index
      %59 = "tts.load"(%54, %58, %6) <{operandSegmentSizes = array<i32: 1, 1, 1>, static_mask_dims = array<i64: -9223372036854775808>}> : (tensor<256x!tt.ptr<f32>>, index, f32) -> tensor<256xf32>
      %60 = "arith.subf"(%59, %21) <{fastmath = #arith.fastmath<none>}> : (tensor<256xf32>, tensor<256xf32>) -> tensor<256xf32>
      %61 = "arith.select"(%51, %60, %8) : (tensor<256xi1>, tensor<256xf32>, tensor<256xf32>) -> tensor<256xf32>
…
dag:22'0     ~~~~~~~~~~~~~~~~~~~~~~~~~~~~~~~~~~~~~~~~~~~~
         19:  %reinterpret_cast_0 = memref.reinterpret_cast %arg1 to offset: [%c0], sizes: [1], strides: [1] : memref<*xbf16> to memref<1xbf16, strided<[1], offset: ?>> 
dag:22'0     ~~~~~~~~~~~~~~~~~~~~~~~~~~~~~~~~~~~~~~~~~~~~~~~~~~~~~~~~~~~~~~~~~~~~~~~~~~~~~~~~~~~~~~~~~~~~~~~~~~~~~~~~~~~~~~~~~~~~~~~~~~~~~~~~~~~~~~~~~~~~~~~~~~~~~~~~~~~~
dag:22'2                    ?                                                                                                                                             possible intended match
         20:  affine.store %2, %reinterpret_cast_0[0] : memref<1xbf16, strided<[1], offset: ?>> 
dag:22'0     ~~~~~~~~~~~~~~~~~~~~~~~~~~~~~~~~~~~~~~~~~~~~~~~~~~~~~~~~~~~~~~~~~~~~~~~~~~~~~~~~~~~
         21:  return 
dag:22'0     ~~~~~~~~
         22:  } 
dag:22'0     ~~~
         23: } 
dag:22'0     ~~
         24:  
dag:22'0     ~
>>>>>>

--

********************
FAIL: TRITON-SHARED :: Conversion/StructuredToMemref/scalar_store_no_iterargs.mlir (67 of 215)
******************** TEST 'TRITON-SHARED :: Conversion/StructuredToMemref/scalar_store_no_iterargs.mlir' FAILED ********************
Exit Code: 1

Command Output (stderr):
--
RUN: at line 1: /home/nhat/github/triton_shared/triton/python/build/cmake.linux-x86_64-cpython-3.8/third_party/triton_shared/tools/triton-shared-opt/triton-shared-opt --canonicalize --triton-arith-to-linalg --structured-to-memref /home/nhat/github/triton_shared/test/Conversion/StructuredToMemref/scalar_store_no_iterargs.mlir | FileCheck /home/nhat/github/triton_shared/test/Conversion/StructuredToMemref/scalar_store_no_iterargs.mlir
+ /home/nhat/github/triton_shared/triton/python/build/cmake.linux-x86_64-cpython-3.8/third_party/triton_shared/tools/triton-shared-opt/triton-shared-opt --canonicalize --triton-arith-to-linalg --structured-to-memref /home/nhat/github/triton_shared/test/Conversion/StructuredToMemref/scalar_store_no_iterargs.mlir
+ FileCheck /home/nhat/github/triton_shared/test/Conversion/StructuredToMemref/scalar_store_no_iterargs.mlir
module {
  func.func @reduce_kernel_2d_0d1d2de3de(%arg0: !tt.ptr<f32> {tt.divisibility = 16 : i32}, %arg1: !tt.ptr<f32> {tt.divisibility = 16 : i32}, %arg2: i32 {tt.divisibility = 16 : i32, tt.max_divisibility = 16 : i32}, %arg3: i32 {tt.divisibility = 16 : i32, tt.max_divisibility = 16 : i32}, %arg4: i32, %arg5: i32, %arg6: i32, %arg7: i32, %arg8: i32, %arg9: i32, %arg10: i32, %arg11: i32, %arg12: i32, %arg13: i32, %arg14: i32, %arg15: i32) {
    %c1_i32 = arith.constant 1 : i32
    %c5_i32 = arith.constant 5 : i32
    %c0_i32 = arith.constant 0 : i32
    %0 = tt.addptr %arg1, %arg7 : !tt.ptr<f32>, i32
    %1 = arith.sitofp %arg7 : i32 to f32
    scf.for %arg16 = %c0_i32 to %c5_i32 step %c1_i32  : i32 {
      %2 = tt.addptr %0, %arg16 : !tt.ptr<f32>, i32
      tt.store %2, %1 : !tt.ptr<f32>
    }
    return
  }
}
/home/nhat/github/triton_shared/test/Conversion/StructuredToMemref/scalar_store_no_iterargs.mlir:19:16: error: CHECK-SAME: expected string not found in input
// CHECK-SAME: ([[PARAM_0_:%.+]]: memref<*xf32> {tt.divisibility = 16 : i32}, [[PARAM_1_:%.+]]: memref<*xf32> {tt.divisibility = 16 : i32}, [[PARAM_2_:%.+]]: i32 {tt.divisibility = 16 : i32, tt.max_divisibility = 16 : i32}, [[PARAM_3_:%.+]]: i32 {tt.divisibility = 16 : i32, tt.max_divisibility = 16 : i32}, [[PARAM_4_:%.+]]: i32, [[PARAM_5_:%.+]]: i32, [[PARAM_6_:%.+]]: i32, [[PARAM_7_:%.+]]: i32, [[PARAM_8_:%.+]]: i32, [[PARAM_9_:%.+]]: i32) {
               ^
<stdin>:2:40: note: scanning from here
 func.func @reduce_kernel_2d_0d1d2de3de(%arg0: !tt.ptr<f32> {tt.divisibility = 16 : i32}, %arg1: !tt.ptr<f32> {tt.divisibility = 16 : i32}, %arg2: i32 {tt.divisibility = 16 : i32, tt.max_divisibility = 16 : i32}, %arg3: i32 {tt.divisibility = 16 : i32, tt.max_divisibility = 16 : i32}, %arg4: i32, %arg5: i32, %arg6: i32, %arg7: i32, %arg8: i32, %arg9: i32, %arg10: i32, %arg11: i32, %arg12: i32, %arg13: i32, %arg14: i32, %arg15: i32) {
                                       ^

Input file: <stdin>
Check file: /home/nhat/github/triton_shared/test/Conversion/StructuredToMemref/scalar_store_no_iterargs.mlir

-dump-input=help explains the following input dump.

Input was:
<<<<<<
         1: module { 
         2:  func.func @reduce_kernel_2d_0d1d2de3de(%arg0: !tt.ptr<f32> {tt.divisibility = 16 : i32}, %arg1: !tt.ptr<f32> {tt.divisibility = 16 : i32}, %arg2: i32 {tt.divisibility = 16 : i32, tt.max_divisibility = 16 : i32}, %arg3: i32 {tt.divisibility = 16 : i32, tt.max_divisibility = 16 : i32}, %arg4: i32, %arg5: i32, %arg6: i32, %arg7: i32, %arg8: i32, %arg9: i32, %arg10: i32, %arg11: i32, %arg12: i32, %arg13: i32, %arg14: i32, %arg15: i32) { 
same:19                                            X~~~~~~~~~~~~~~~~~~~~~~~~~~~~~~~~~~~~~~~~~~~~~~~~~~~~~~~~~~~~~~~~~~~~~~~~~~~~~~~~~~~~~~~~~~~~~~~~~~~~~~~~~~~~~~~~~~~~~~~~~~~~~~~~~~~~~~~~~~~~~~~~~~~~~~~~~~~~~~~~~~~~~~~~~~~~~~~~~~~~~~~~~~~~~~~~~~~~~~~~~~~~~~~~~~~~~~~~~~~~~~~~~~~~~~~~~~~~~~~~~~~~~~~~~~~~~~~~~~~~~~~~~~~~~~~~~~~~~~~~~~~~~~~~~~~~~~~~~~~~~~~~~~~~~~~~~~~~~~~~~~~~~~~~~~~~~~~~~~~~~~~~~~~~~~~~~~~~~~~~~~~~~~~~~~~~~~~~~~~~~~~~~~~~~~~~~~~~~~ error: no match found
         3:  %c1_i32 = arith.constant 1 : i32 
same:19     ~~~~~~~~~~~~~~~~~~~~~~~~~~~~~~~~~~
         4:  %c5_i32 = arith.constant 5 : i32 
same:19     ~~~~~~~~~~~~~~~~~~~~~~~~~~~~~~~~~~
         5:  %c0_i32 = arith.constant 0 : i32 
same:19     ~~~~~~~~~~~~~~~~~~~~~~~~~~~~~~~~~~
         6:  %0 = tt.addptr %arg1, %arg7 : !tt.ptr<f32>, i32 
same:19     ~~~~~~~~~~~~~~~~~~~~~~~~~~~~~~~~~~~~~~~~~~~~~~~~~
         7:  %1 = arith.sitofp %arg7 : i32 to f32 
same:19     ~~~~~~~~~~~~~~~~~~~~~~~~~~~~~~~~~~~~~~
         .
         .
         .
>>>>>>

--

********************
FAIL: TRITON-SHARED :: Conversion/StructuredToMemref/scalar_store_loop.mlir (68 of 215)
******************** TEST 'TRITON-SHARED :: Conversion/StructuredToMemref/scalar_store_loop.mlir' FAILED ********************
Exit Code: 1

Command Output (stderr):
--
RUN: at line 1: /home/nhat/github/triton_shared/triton/python/build/cmake.linux-x86_64-cpython-3.8/third_party/triton_shared/tools/triton-shared-opt/triton-shared-opt --canonicalize --triton-arith-to-linalg --structured-to-memref /home/nhat/github/triton_shared/test/Conversion/StructuredToMemref/scalar_store_loop.mlir | FileCheck /home/nhat/github/triton_shared/test/Conversion/StructuredToMemref/scalar_store_loop.mlir
+ /home/nhat/github/triton_shared/triton/python/build/cmake.linux-x86_64-cpython-3.8/third_party/triton_shared/tools/triton-shared-opt/triton-shared-opt --canonicalize --triton-arith-to-linalg --structured-to-memref /home/nhat/github/triton_shared/test/Conversion/StructuredToMemref/scalar_store_loop.mlir
module {
  func.func @reduce_kernel_2d_0d(%arg0: !tt.ptr<f32> {tt.divisibility = 16 : i32}, %arg1: i32, %arg2: i32, %arg3: i32, %arg4: i32, %arg5: i32, %arg6: i32, %arg7: i32, %arg8: i32, %arg9: i32, %arg10: i32, %arg11: i32, %arg12: i32) {
    %c8_i32 = arith.constant 8 : i32
    %c0_i32 = arith.constant 0 : i32
    %c1_i32 = arith.constant 1 : i32
    %0 = scf.for %arg13 = %c0_i32 to %c8_i32 step %c1_i32 iter_args(%arg14 = %arg0) -> (!tt.ptr<f32>)  : i32 {
      %1 = arith.sitofp %arg13 : i32 to f32
      tt.store %arg14, %1 : !tt.ptr<f32>
      %2 = tt.addptr %arg14, %c1_i32 : !tt.ptr<f32>, i32
      scf.yield %2 : !tt.ptr<f32>
    }
    return
  }
}
+ FileCheck /home/nhat/github/triton_shared/test/Conversion/StructuredToMemref/scalar_store_loop.mlir
/home/nhat/github/triton_shared/test/Conversion/StructuredToMemref/scalar_store_loop.mlir:19:16: error: CHECK-SAME: expected string not found in input
// CHECK-SAME: ([[PARAM_0_:%.+]]: memref<*xf32> {tt.divisibility = 16 : i32}, [[PARAM_1_:%.+]]: i32, [[PARAM_2_:%.+]]: i32, [[PARAM_3_:%.+]]: i32, [[PARAM_4_:%.+]]: i32, [[PARAM_5_:%.+]]: i32, [[PARAM_6_:%.+]]: i32) {
               ^
<stdin>:2:32: note: scanning from here
 func.func @reduce_kernel_2d_0d(%arg0: !tt.ptr<f32> {tt.divisibility = 16 : i32}, %arg1: i32, %arg2: i32, %arg3: i32, %arg4: i32, %arg5: i32, %arg6: i32, %arg7: i32, %arg8: i32, %arg9: i32, %arg10: i32, %arg11: i32, %arg12: i32) {
                               ^

Input file: <stdin>
Check file: /home/nhat/github/triton_shared/test/Conversion/StructuredToMemref/scalar_store_loop.mlir

-dump-input=help explains the following input dump.

Input was:
<<<<<<
         1: module { 
         2:  func.func @reduce_kernel_2d_0d(%arg0: !tt.ptr<f32> {tt.divisibility = 16 : i32}, %arg1: i32, %arg2: i32, %arg3: i32, %arg4: i32, %arg5: i32, %arg6: i32, %arg7: i32, %arg8: i32, %arg9: i32, %arg10: i32, %arg11: i32, %arg12: i32) { 
same:19                                    X~~~~~~~~~~~~~~~~~~~~~~~~~~~~~~~~~~~~~~~~~~~~~~~~~~~~~~~~~~~~~~~~~~~~~~~~~~~~~~~~~~~~~~~~~~~~~~~~~~~~~~~~~~~~~~~~~~~~~~~~~~~~~~~~~~~~~~~~~~~~~~~~~~~~~~~~~~~~~~~~~~~~~~~~~~~~~~~~~~~~~~~~~~~~~~~~~~~~~~~ error: no match found
         3:  %c8_i32 = arith.constant 8 : i32 
same:19     ~~~~~~~~~~~~~~~~~~~~~~~~~~~~~~~~~~
         4:  %c0_i32 = arith.constant 0 : i32 
same:19     ~~~~~~~~~~~~~~~~~~~~~~~~~~~~~~~~~~
         5:  %c1_i32 = arith.constant 1 : i32 
same:19     ~~~~~~~~~~~~~~~~~~~~~~~~~~~~~~~~~~
         6:  %0 = scf.for %arg13 = %c0_i32 to %c8_i32 step %c1_i32 iter_args(%arg14 = %arg0) -> (!tt.ptr<f32>) : i32 { 
same:19     ~~~~~~~~~~~~~~~~~~~~~~~~~~~~~~~~~~~~~~~~~~~~~~~~~~~~~~~~~~~~~~~~~~~~~~~~~~~~~~~~~~~~~~~~~~~~~~~~~~~~~~~~~~~
         7:  %1 = arith.sitofp %arg13 : i32 to f32 
same:19     ~~~~~~~~~~~~~~~~~~~~~~~~~~~~~~~~~~~~~~~
         .
         .
         .
>>>>>>

--

********************
PASS: TRITON-SHARED :: Conversion/StructuredToMemref/addptr_reshape_broadcast.mlir (69 of 215)
FAIL: TRITON-SHARED :: Conversion/StructuredToMemref/convert_addi_reduce.mlir (70 of 215)
******************** TEST 'TRITON-SHARED :: Conversion/StructuredToMemref/convert_addi_reduce.mlir' FAILED ********************
Exit Code: 1

Command Output (stderr):
--
RUN: at line 1: /home/nhat/github/triton_shared/triton/python/build/cmake.linux-x86_64-cpython-3.8/third_party/triton_shared/tools/triton-shared-opt/triton-shared-opt --split-input-file --triton-to-linalg-experimental  /home/nhat/github/triton_shared/test/Conversion/StructuredToMemref/convert_addi_reduce.mlir | FileCheck /home/nhat/github/triton_shared/test/Conversion/StructuredToMemref/convert_addi_reduce.mlir
+ /home/nhat/github/triton_shared/triton/python/build/cmake.linux-x86_64-cpython-3.8/third_party/triton_shared/tools/triton-shared-opt/triton-shared-opt --split-input-file --triton-to-linalg-experimental /home/nhat/github/triton_shared/test/Conversion/StructuredToMemref/convert_addi_reduce.mlir
+ FileCheck /home/nhat/github/triton_shared/test/Conversion/StructuredToMemref/convert_addi_reduce.mlir
within split at /home/nhat/github/triton_shared/test/Conversion/StructuredToMemref/convert_addi_reduce.mlir:1 offset :11:5: remark: PtrAnalysis: pointer is not replace with tts.make_tptr so storeOp cannot be rewritten
    tt.store %arg0, %63 : !tt.ptr<i32>
    ^
within split at /home/nhat/github/triton_shared/test/Conversion/StructuredToMemref/convert_addi_reduce.mlir:1 offset :11:5: note: see current operation: tt.store %arg0, %0 : !tt.ptr<i32>
within split at /home/nhat/github/triton_shared/test/Conversion/StructuredToMemref/convert_addi_reduce.mlir:1 offset :11:5: remark: PtrAnalysis: Failed to rewrite StoreOp
    tt.store %arg0, %63 : !tt.ptr<i32>
    ^
within split at /home/nhat/github/triton_shared/test/Conversion/StructuredToMemref/convert_addi_reduce.mlir:1 offset :11:5: note: see current operation: tt.store %arg0, %0 : !tt.ptr<i32>
"builtin.module"() ({
  "tt.func"() <{function_type = (!tt.ptr<i32>) -> (), sym_name = "addi", sym_visibility = "public"}> ({
  ^bb0(%arg0: !tt.ptr<i32>):
    %0 = "arith.constant"() <{value = 0 : i32}> : () -> i32
    %1 = "arith.constant"() <{value = dense<0> : tensor<4096xi32>}> : () -> tensor<4096xi32>
    %2 = "tt.reduce"(%1) <{axis = 0 : i32}> ({
    ^bb0(%arg1: i32, %arg2: i32):
      %3 = "arith.addi"(%arg1, %arg2) <{overflowFlags = #arith.overflow<none>}> : (i32, i32) -> i32
      "tt.reduce.return"(%3) : (i32) -> ()
    }) : (tensor<4096xi32>) -> i32
    "tt.store"(%0, %2) <{boundaryCheck = array<i32>, cache = 1 : i32, evict = 1 : i32}> : (i32, i32) -> ()
    "tt.return"() : () -> ()
  }) : () -> ()
}) : () -> ()
processing val
%0 = "arith.constant"() <{value = 0 : i32}> : () -> i32
these are the uses:
"tt.store"(%0, %2) <{boundaryCheck = array<i32>, cache = 1 : i32, evict = 1 : i32}> : (i32, i32) -> ()
actual processing
processing user
"tt.store"(%0, %2) <{boundaryCheck = array<i32>, cache = 1 : i32, evict = 1 : i32}> : (i32, i32) -> ()
!tt.ptr<i32>
~~~~
"builtin.module"() ({
  "tt.func"() <{function_type = (!tt.ptr<i32>) -> (), sym_name = "addi", sym_visibility = "public"}> ({
  ^bb0(%arg0: !tt.ptr<i32>):
    %0 = "arith.constant"() <{value = 0 : i32}> : () -> i32
    %1 = "arith.constant"() <{value = dense<0> : tensor<4096xi32>}> : () -> tensor<4096xi32>
    %2 = "tt.reduce"(%1) <{axis = 0 : i32}> ({
    ^bb0(%arg1: i32, %arg2: i32):
      %4 = "arith.addi"(%arg1, %arg2) <{overflowFlags = #arith.overflow<none>}> : (i32, i32) -> i32
      "tt.reduce.return"(%4) : (i32) -> ()
    }) : (tensor<4096xi32>) -> i32
    %3 = "tts.create_ptr"(%arg0, %0) : (!tt.ptr<i32>, i32) -> !tt.ptr<i32>
    "tt.store"(%0, %2) <{boundaryCheck = array<i32>, cache = 1 : i32, evict = 1 : i32}> : (i32, i32) -> ()
    "tt.return"() : () -> ()
  }) : () -> ()
}) : () -> ()
total addptr count: 0
module {
  func.func @addi(%arg0: !tt.ptr<i32>, %arg1: i32, %arg2: i32, %arg3: i32, %arg4: i32, %arg5: i32, %arg6: i32) {
    %c0_i32 = arith.constant 0 : i32
    %c0_i32_0 = arith.constant 0 : i32
    %0 = tensor.empty() : tensor<4096xi32>
    %1 = linalg.fill ins(%c0_i32_0 : i32) outs(%0 : tensor<4096xi32>) -> tensor<4096xi32>
    %c0_i32_1 = arith.constant 0 : i32
    %2 = bufferization.alloc_tensor() : tensor<i32>
    %inserted = tensor.insert %c0_i32_1 into %2[] : tensor<i32>
    %reduced = linalg.reduce ins(%1 : tensor<4096xi32>) outs(%inserted : tensor<i32>) dimensions = [0] 
      (%in: i32, %init: i32) {
        %4 = arith.addi %in, %init : i32
        linalg.yield %4 : i32
      }
    %extracted = tensor.extract %reduced[] : tensor<i32>
    %3 = "tts.create_ptr"(%arg0, %c0_i32) : (!tt.ptr<i32>, i32) -> !tt.ptr<i32>
    tt.store %3, %extracted : !tt.ptr<i32>
    return
  }
}
/home/nhat/github/triton_shared/test/Conversion/StructuredToMemref/convert_addi_reduce.mlir:19:15: error: CHECK-DAG: expected string not found in input
// CHECK-DAG: [[VAR_reinterpret_cast_:%.+]] = memref.reinterpret_cast [[PARAM_0_]] to offset: [0], sizes: [1], strides: [1] : memref<*xi32> to memref<1xi32, strided<[1], offset: ?>>
              ^
<stdin>:2:113: note: scanning from here
 func.func @addi(%arg0: memref<*xi32>, %arg1: i32, %arg2: i32, %arg3: i32, %arg4: i32, %arg5: i32, %arg6: i32) {
                                                                                                                ^
<stdin>:2:113: note: with "PARAM_0_" equal to "%arg0"
 func.func @addi(%arg0: memref<*xi32>, %arg1: i32, %arg2: i32, %arg3: i32, %arg4: i32, %arg5: i32, %arg6: i32) {
                                                                                                                ^
<stdin>:15:14: note: possible intended match here
 %reinterpret_cast = memref.reinterpret_cast %arg0 to offset: [%c0], sizes: [1], strides: [1] : memref<*xi32> to memref<1xi32, strided<[1], offset: ?>>
             ^

Input file: <stdin>
Check file: /home/nhat/github/triton_shared/test/Conversion/StructuredToMemref/convert_addi_reduce.mlir

-dump-input=help explains the following input dump.

Input was:
<<<<<<
          1: module { 
          2:  func.func @addi(%arg0: memref<*xi32>, %arg1: i32, %arg2: i32, %arg3: i32, %arg4: i32, %arg5: i32, %arg6: i32) { 
dag:19'0                                                                                                                     X error: no match found
dag:19'1                                                                                                                       with "PARAM_0_" equal to "%arg0"
          3:  %c0 = arith.constant 0 : index 
dag:19'0     ~~~~~~~~~~~~~~~~~~~~~~~~~~~~~~~~
          4:  %c0_i32 = arith.constant 0 : i32 
dag:19'0     ~~~~~~~~~~~~~~~~~~~~~~~~~~~~~~~~~~
          5:  %0 = tensor.empty() : tensor<4096xi32> 
dag:19'0     ~~~~~~~~~~~~~~~~~~~~~~~~~~~~~~~~~~~~~~~~
          6:  %1 = linalg.fill ins(%c0_i32 : i32) outs(%0 : tensor<4096xi32>) -> tensor<4096xi32> 
dag:19'0     ~~~~~~~~~~~~~~~~~~~~~~~~~~~~~~~~~~~~~~~~~~~~~~~~~~~~~~~~~~~~~~~~~~~~~~~~~~~~~~~~~~~~~
          7:  %2 = bufferization.alloc_tensor() : tensor<i32> 
dag:19'0     ~~~~~~~~~~~~~~~~~~~~~~~~~~~~~~~~~~~~~~~~~~~~~~~~~
          .
          .
          .
         10:  (%in: i32, %init: i32) { 
dag:19'0     ~~~~~~~~~~~~~~~~~~~~~~~~~~
         11:  %3 = arith.addi %in, %init : i32 
dag:19'0     ~~~~~~~~~~~~~~~~~~~~~~~~~~~~~~~~~~
         12:  linalg.yield %3 : i32 
dag:19'0     ~~~~~~~~~~~~~~~~~~~~~~~
         13:  } 
dag:19'0     ~~~
         14:  %extracted = tensor.extract %reduced[] : tensor<i32> 
dag:19'0     ~~~~~~~~~~~~~~~~~~~~~~~~~~~~~~~~~~~~~~~~~~~~~~~~~~~~~~
         15:  %reinterpret_cast = memref.reinterpret_cast %arg0 to offset: [%c0], sizes: [1], strides: [1] : memref<*xi32> to memref<1xi32, strided<[1], offset: ?>> 
dag:19'0     ~~~~~~~~~~~~~~~~~~~~~~~~~~~~~~~~~~~~~~~~~~~~~~~~~~~~~~~~~~~~~~~~~~~~~~~~~~~~~~~~~~~~~~~~~~~~~~~~~~~~~~~~~~~~~~~~~~~~~~~~~~~~~~~~~~~~~~~~~~~~~~~~~~~~~~~~
dag:19'2                  ?                                                                                                                                           possible intended match
         16:  affine.store %extracted, %reinterpret_cast[0] : memref<1xi32, strided<[1], offset: ?>> 
dag:19'0     ~~~~~~~~~~~~~~~~~~~~~~~~~~~~~~~~~~~~~~~~~~~~~~~~~~~~~~~~~~~~~~~~~~~~~~~~~~~~~~~~~~~~~~~~
         17:  return 
dag:19'0     ~~~~~~~~
         18:  } 
dag:19'0     ~~~
         19: } 
dag:19'0     ~~
         20:  
dag:19'0     ~
>>>>>>

--

********************
PASS: TRITON-SHARED :: Conversion/StructuredToMemref/addptr_add_value.mlir (71 of 215)
PASS: TRITON-SHARED :: Conversion/TritonToStructured/addptr_for_used_after_update.mlir (72 of 215)
PASS: TRITON-SHARED :: Conversion/StructuredToMemref/triton_assert.mlir (73 of 215)
PASS: TRITON-SHARED :: Conversion/TritonToStructured/addptr_scalar_splat.mlir (74 of 215)
PASS: TRITON-SHARED :: Conversion/TritonToLinalg/addptr_add_value.mlir (75 of 215)
FAIL: TRITON-SHARED :: Conversion/StructuredToMemref/convert_minmax_fp_reduce.mlir (76 of 215)
******************** TEST 'TRITON-SHARED :: Conversion/StructuredToMemref/convert_minmax_fp_reduce.mlir' FAILED ********************
Exit Code: 1

Command Output (stderr):
--
RUN: at line 1: /home/nhat/github/triton_shared/triton/python/build/cmake.linux-x86_64-cpython-3.8/third_party/triton_shared/tools/triton-shared-opt/triton-shared-opt --split-input-file --triton-to-linalg-experimental  /home/nhat/github/triton_shared/test/Conversion/StructuredToMemref/convert_minmax_fp_reduce.mlir | FileCheck /home/nhat/github/triton_shared/test/Conversion/StructuredToMemref/convert_minmax_fp_reduce.mlir
+ /home/nhat/github/triton_shared/triton/python/build/cmake.linux-x86_64-cpython-3.8/third_party/triton_shared/tools/triton-shared-opt/triton-shared-opt --split-input-file --triton-to-linalg-experimental /home/nhat/github/triton_shared/test/Conversion/StructuredToMemref/convert_minmax_fp_reduce.mlir
+ FileCheck /home/nhat/github/triton_shared/test/Conversion/StructuredToMemref/convert_minmax_fp_reduce.mlir
within split at /home/nhat/github/triton_shared/test/Conversion/StructuredToMemref/convert_minmax_fp_reduce.mlir:1 offset :11:5: remark: PtrAnalysis: pointer is not replace with tts.make_tptr so storeOp cannot be rewritten
    tt.store %arg0, %63 : !tt.ptr<f32>
    ^
within split at /home/nhat/github/triton_shared/test/Conversion/StructuredToMemref/convert_minmax_fp_reduce.mlir:1 offset :11:5: note: see current operation: tt.store %arg0, %0 : !tt.ptr<f32>
within split at /home/nhat/github/triton_shared/test/Conversion/StructuredToMemref/convert_minmax_fp_reduce.mlir:1 offset :11:5: remark: PtrAnalysis: Failed to rewrite StoreOp
    tt.store %arg0, %63 : !tt.ptr<f32>
    ^
within split at /home/nhat/github/triton_shared/test/Conversion/StructuredToMemref/convert_minmax_fp_reduce.mlir:1 offset :11:5: note: see current operation: tt.store %arg0, %0 : !tt.ptr<f32>
"builtin.module"() ({
  "tt.func"() <{function_type = (!tt.ptr<f32>) -> (), sym_name = "maxnumf", sym_visibility = "public"}> ({
  ^bb0(%arg0: !tt.ptr<f32>):
    %0 = "arith.constant"() <{value = 0 : i32}> : () -> i32
    %1 = "arith.constant"() <{value = dense<0.000000e+00> : tensor<4096xf32>}> : () -> tensor<4096xf32>
    %2 = "tt.reduce"(%1) <{axis = 0 : i32}> ({
    ^bb0(%arg1: f32, %arg2: f32):
      %3 = "arith.maxnumf"(%arg1, %arg2) <{fastmath = #arith.fastmath<none>}> : (f32, f32) -> f32
      "tt.reduce.return"(%3) : (f32) -> ()
    }) : (tensor<4096xf32>) -> f32
    "tt.store"(%0, %2) <{boundaryCheck = array<i32>, cache = 1 : i32, evict = 1 : i32}> : (i32, f32) -> ()
    "tt.return"() : () -> ()
  }) : () -> ()
}) : () -> ()
processing val
%0 = "arith.constant"() <{value = 0 : i32}> : () -> i32
these are the uses:
"tt.store"(%0, %2) <{boundaryCheck = array<i32>, cache = 1 : i32, evict = 1 : i32}> : (i32, f32) -> ()
actual processing
processing user
"tt.store"(%0, %2) <{boundaryCheck = array<i32>, cache = 1 : i32, evict = 1 : i32}> : (i32, f32) -> ()
!tt.ptr<f32>
~~~~
"builtin.module"() ({
  "tt.func"() <{function_type = (!tt.ptr<f32>) -> (), sym_name = "maxnumf", sym_visibility = "public"}> ({
  ^bb0(%arg0: !tt.ptr<f32>):
    %0 = "arith.constant"() <{value = 0 : i32}> : () -> i32
    %1 = "arith.constant"() <{value = dense<0.000000e+00> : tensor<4096xf32>}> : () -> tensor<4096xf32>
    %2 = "tt.reduce"(%1) <{axis = 0 : i32}> ({
    ^bb0(%arg1: f32, %arg2: f32):
      %4 = "arith.maxnumf"(%arg1, %arg2) <{fastmath = #arith.fastmath<none>}> : (f32, f32) -> f32
      "tt.reduce.return"(%4) : (f32) -> ()
    }) : (tensor<4096xf32>) -> f32
    %3 = "tts.create_ptr"(%arg0, %0) : (!tt.ptr<f32>, i32) -> !tt.ptr<f32>
    "tt.store"(%0, %2) <{boundaryCheck = array<i32>, cache = 1 : i32, evict = 1 : i32}> : (i32, f32) -> ()
    "tt.return"() : () -> ()
  }) : () -> ()
}) : () -> ()
total addptr count: 0
module {
  func.func @maxnumf(%arg0: !tt.ptr<f32>, %arg1: i32, %arg2: i32, %arg3: i32, %arg4: i32, %arg5: i32, %arg6: i32) {
    %c0_i32 = arith.constant 0 : i32
    %cst = arith.constant 0.000000e+00 : f32
    %0 = tensor.empty() : tensor<4096xf32>
    %1 = linalg.fill ins(%cst : f32) outs(%0 : tensor<4096xf32>) -> tensor<4096xf32>
    %cst_0 = arith.constant 0xFF800000 : f32
    %2 = bufferization.alloc_tensor() : tensor<f32>
    %inserted = tensor.insert %cst_0 into %2[] : tensor<f32>
    %reduced = linalg.reduce ins(%1 : tensor<4096xf32>) outs(%inserted : tensor<f32>) dimensions = [0] 
      (%in: f32, %init: f32) {
        %4 = arith.maxnumf %in, %init : f32
        linalg.yield %4 : f32
      }
    %extracted = tensor.extract %reduced[] : tensor<f32>
    %3 = "tts.create_ptr"(%arg0, %c0_i32) : (!tt.ptr<f32>, i32) -> !tt.ptr<f32>
    tt.store %3, %extracted : !tt.ptr<f32>
    return
  }
}
within split at /home/nhat/github/triton_shared/test/Conversion/StructuredToMemref/convert_minmax_fp_reduce.mlir:37 offset :12:5: remark: PtrAnalysis: pointer is not replace with tts.make_tptr so storeOp cannot be rewritten
    tt.store %arg0, %63 : !tt.ptr<f32>
    ^
within split at /home/nhat/github/triton_shared/test/Conversion/StructuredToMemref/convert_minmax_fp_reduce.mlir:37 offset :12:5: note: see current operation: tt.store %arg0, %0 : !tt.ptr<f32>
within split at /home/nhat/github/triton_shared/test/Conversion/StructuredToMemref/convert_minmax_fp_reduce.mlir:37 offset :12:5: remark: PtrAnalysis: Failed to rewrite StoreOp
    tt.store %arg0, %63 : !tt.ptr<f32>
    ^
within split at /home/nhat/github/triton_shared/test/Conversion/StructuredToMemref/convert_minmax_fp_reduce.mlir:37 offset :12:5: note: see current operation: tt.store %arg0, %0 : !tt.ptr<f32>
"builtin.module"() ({
  "tt.func"() <{function_type = (!tt.ptr<f32>) -> (), sym_name = "minnumf", sym_visibility = "public"}> ({
  ^bb0(%arg0: !tt.ptr<f32>):
    %0 = "arith.constant"() <{value = 0 : i32}> : () -> i32
    %1 = "arith.constant"() <{value = dense<0.000000e+00> : tensor<4096xf32>}> : () -> tensor<4096xf32>
    %2 = "tt.reduce"(%1) <{axis = 0 : i32}> ({
    ^bb0(%arg1: f32, %arg2: f32):
      %3 = "arith.minnumf"(%arg1, %arg2) <{fastmath = #arith.fastmath<none>}> : (f32, f32) -> f32
      "tt.reduce.return"(%3) : (f32) -> ()
    }) : (tensor<4096xf32>) -> f32
    "tt.store"(%0, %2) <{boundaryCheck = array<i32>, cache = 1 : i32, evict = 1 : i32}> : (i32, f32) -> ()
    "tt.return"() : () -> ()
  }) : () -> ()
}) : () -> ()
processing val
%0 = "arith.constant"() <{value = 0 : i32}> : () -> i32
these are the uses:
"tt.store"(%0, %2) <{boundaryCheck = array<i32>, cache = 1 : i32, evict = 1 : i32}> : (i32, f32) -> ()
actual processing
processing user
"tt.store"(%0, %2) <{boundaryCheck = array<i32>, cache = 1 : i32, evict = 1 : i32}> : (i32, f32) -> ()
!tt.ptr<f32>
~~~~
"builtin.module"() ({
  "tt.func"() <{function_type = (!tt.ptr<f32>) -> (), sym_name = "minnumf", sym_visibility = "public"}> ({
  ^bb0(%arg0: !tt.ptr<f32>):
    %0 = "arith.constant"() <{value = 0 : i32}> : () -> i32
    %1 = "arith.constant"() <{value = dense<0.000000e+00> : tensor<4096xf32>}> : () -> tensor<4096xf32>
    %2 = "tt.reduce"(%1) <{axis = 0 : i32}> ({
    ^bb0(%arg1: f32, %arg2: f32):
      %4 = "arith.minnumf"(%arg1, %arg2) <{fastmath = #arith.fastmath<none>}> : (f32, f32) -> f32
      "tt.reduce.return"(%4) : (f32) -> ()
    }) : (tensor<4096xf32>) -> f32
    %3 = "tts.create_ptr"(%arg0, %0) : (!tt.ptr<f32>, i32) -> !tt.ptr<f32>
    "tt.store"(%0, %2) <{boundaryCheck = array<i32>, cache = 1 : i32, evict = 1 : i32}> : (i32, f32) -> ()
    "tt.return"() : () -> ()
  }) : () -> ()
}) : () -> ()
total addptr count: 0
module {
  func.func @minnumf(%arg0: !tt.ptr<f32>, %arg1: i32, %arg2: i32, %arg3: i32, %arg4: i32, %arg5: i32, %arg6: i32) {
    %c0_i32 = arith.constant 0 : i32
    %cst = arith.constant 0.000000e+00 : f32
    %0 = tensor.empty() : tensor<4096xf32>
    %1 = linalg.fill ins(%cst : f32) outs(%0 : tensor<4096xf32>) -> tensor<4096xf32>
    %cst_0 = arith.constant 0x7F800000 : f32
    %2 = bufferization.alloc_tensor() : tensor<f32>
    %inserted = tensor.insert %cst_0 into %2[] : tensor<f32>
    %reduced = linalg.reduce ins(%1 : tensor<4096xf32>) outs(%inserted : tensor<f32>) dimensions = [0] 
      (%in: f32, %init: f32) {
        %4 = arith.minnumf %in, %init : f32
        linalg.yield %4 : f32
      }
    %extracted = tensor.extract %reduced[] : tensor<f32>
    %3 = "tts.create_ptr"(%arg0, %c0_i32) : (!tt.ptr<f32>, i32) -> !tt.ptr<f32>
    tt.store %3, %extracted : !tt.ptr<f32>
    return
  }
}
/home/nhat/github/triton_shared/test/Conversion/StructuredToMemref/convert_minmax_fp_reduce.mlir:20:15: error: CHECK-DAG: expected string not found in input
// CHECK-DAG: [[VAR_reinterpret_cast_:%.+]] = memref.reinterpret_cast [[PARAM_0_]] to offset: [0], sizes: [1], strides: [1] : memref<*xf32> to memref<1xf32, strided<[1], offset: ?>>
              ^
<stdin>:2:116: note: scanning from here
 func.func @maxnumf(%arg0: memref<*xf32>, %arg1: i32, %arg2: i32, %arg3: i32, %arg4: i32, %arg5: i32, %arg6: i32) {
                                                                                                                   ^
<stdin>:2:116: note: with "PARAM_0_" equal to "%arg0"
 func.func @maxnumf(%arg0: memref<*xf32>, %arg1: i32, %arg2: i32, %arg3: i32, %arg4: i32, %arg5: i32, %arg6: i32) {
                                                                                                                   ^
<stdin>:16:14: note: possible intended match here
 %reinterpret_cast = memref.reinterpret_cast %arg0 to offset: [%c0], sizes: [1], strides: [1] : memref<*xf32> to memref<1xf32, strided<[1], offset: ?>>
             ^
/home/nhat/github/triton_shared/test/Conversion/StructuredToMemref/convert_minmax_fp_reduce.mlir:57:15: error: CHECK-DAG: expected string not found in input
// CHECK-DAG: [[VAR_reinterpret_cast_:%.+]] = memref.reinterpret_cast [[PARAM_0_]] to offset: [0], sizes: [1], strides: [1] : memref<*xf32> to memref<1xf32, strided<[1], offset: ?>>
              ^
<stdin>:24:116: note: scanning from here
 func.func @minnumf(%arg0: memref<*xf32>, %arg1: i32, %arg2: i32, %arg3: i32, %arg4: i32, %arg5: i32, %arg6: i32) {
                                                                                                                   ^
<stdin>:24:116: note: with "PARAM_0_" equal to "%arg0"
 func.func @minnumf(%arg0: memref<*xf32>, %arg1: i32, %arg2: i32, %arg3: i32, %arg4: i32, %arg5: i32, %arg6: i32) {
                                                                                                                   ^
<stdin>:38:14: note: possible intended match here
 %reinterpret_cast = memref.reinterpret_cast %arg0 to offset: [%c0], sizes: [1], strides: [1] : memref<*xf32> to memref<1xf32, strided<[1], offset: ?>>
             ^

Input file: <stdin>
Check file: /home/nhat/github/triton_shared/test/Conversion/StructuredToMemref/convert_minmax_fp_reduce.mlir

-dump-input=help explains the following input dump.

Input was:
<<<<<<
          1: module { 
          2:  func.func @maxnumf(%arg0: memref<*xf32>, %arg1: i32, %arg2: i32, %arg3: i32, %arg4: i32, %arg5: i32, %arg6: i32) { 
dag:20'0                                                                                                                        X error: no match found
dag:20'1                                                                                                                          with "PARAM_0_" equal to "%arg0"
          3:  %c0 = arith.constant 0 : index 
dag:20'0     ~~~~~~~~~~~~~~~~~~~~~~~~~~~~~~~~
          4:  %cst = arith.constant 0xFF800000 : f32 
dag:20'0     ~~~~~~~~~~~~~~~~~~~~~~~~~~~~~~~~~~~~~~~~
          5:  %cst_0 = arith.constant 0.000000e+00 : f32 
dag:20'0     ~~~~~~~~~~~~~~~~~~~~~~~~~~~~~~~~~~~~~~~~~~~~
          6:  %0 = tensor.empty() : tensor<4096xf32> 
dag:20'0     ~~~~~~~~~~~~~~~~~~~~~~~~~~~~~~~~~~~~~~~~
          7:  %1 = linalg.fill ins(%cst_0 : f32) outs(%0 : tensor<4096xf32>) -> tensor<4096xf32> 
dag:20'0     ~~~~~~~~~~~~~~~~~~~~~~~~~~~~~~~~~~~~~~~~~~~~~~~~~~~~~~~~~~~~~~~~~~~~~~~~~~~~~~~~~~~~
          .
          .
          .
         11:  (%in: f32, %init: f32) { 
dag:20'0     ~~~~~~~~~~~~~~~~~~~~~~~~~~
         12:  %3 = arith.maxnumf %in, %init : f32 
dag:20'0     ~~~~~~~~~~~~~~~~~~~~~~~~~~~~~~~~~~~~~
         13:  linalg.yield %3 : f32 
dag:20'0     ~~~~~~~~~~~~~~~~~~~~~~~
         14:  } 
dag:20'0     ~~~
         15:  %extracted = tensor.extract %reduced[] : tensor<f32> 
dag:20'0     ~~~~~~~~~~~~~~~~~~~~~~~~~~~~~~~~~~~~~~~~~~~~~~~~~~~~~~
         16:  %reinterpret_cast = memref.reinterpret_cast %arg0 to offset: [%c0], sizes: [1], strides: [1] : memref<*xf32> to memref<1xf32, strided<[1], offset: ?>> 
dag:20'0     ~~~~~~~~~~~~~~~~~~~~~~~~~~~~~~~~~~~~~~~~~~~~~~~~~~~~~~~~~~~~~~~~~~~~~~~~~~~~~~~~~~~~~~~~~~~~~~~~~~~~~~~~~~~~~~~~~~~~~~~~~~~~~~~~~~~~~~~~~~~~~~~~~~~~~~~~
dag:20'2                  ?                                                                                                                                           possible intended match
         17:  affine.store %extracted, %reinterpret_cast[0] : memref<1xf32, strided<[1], offset: ?>> 
dag:20'0     ~~~~~~~~~~~~~~~~~~~~~~~~~~~~~~~~~~~~~~~~~~~~~~~~~~~~~~~~~~~~~~~~~~~~~~~~~~~~~~~~~~~~~~~~
         18:  return 
dag:20'0     ~~~~~~~~
         19:  } 
dag:20'0     ~~~
         20: } 
dag:20'0     ~~
         21:  
dag:20'0     ~
         22: // ----- 
dag:20'0     ~~~~~~~~~
         23: module { 
dag:20'0     ~~~~~~~~~
         24:  func.func @minnumf(%arg0: memref<*xf32>, %arg1: i32, %arg2: i32, %arg3: i32, %arg4: i32, %arg5: i32, %arg6: i32) { 
dag:20'0     ~~~~~~~~~~~~~~~~~~~
dag:57'0                                                                                                                        X error: no match found
dag:57'1                                                                                                                          with "PARAM_0_" equal to "%arg0"
         25:  %c0 = arith.constant 0 : index 
dag:57'0     ~~~~~~~~~~~~~~~~~~~~~~~~~~~~~~~~
         26:  %cst = arith.constant 0x7F800000 : f32 
dag:57'0     ~~~~~~~~~~~~~~~~~~~~~~~~~~~~~~~~~~~~~~~~
         27:  %cst_0 = arith.constant 0.000000e+00 : f32 
dag:57'0     ~~~~~~~~~~~~~~~~~~~~~~~~~~~~~~~~~~~~~~~~~~~~
         28:  %0 = tensor.empty() : tensor<4096xf32> 
dag:57'0     ~~~~~~~~~~~~~~~~~~~~~~~~~~~~~~~~~~~~~~~~
         29:  %1 = linalg.fill ins(%cst_0 : f32) outs(%0 : tensor<4096xf32>) -> tensor<4096xf32> 
dag:57'0     ~~~~~~~~~~~~~~~~~~~~~~~~~~~~~~~~~~~~~~~~~~~~~~~~~~~~~~~~~~~~~~~~~~~~~~~~~~~~~~~~~~~~
          .
          .
          .
         33:  (%in: f32, %init: f32) { 
dag:57'0     ~~~~~~~~~~~~~~~~~~~~~~~~~~
         34:  %3 = arith.minnumf %in, %init : f32 
dag:57'0     ~~~~~~~~~~~~~~~~~~~~~~~~~~~~~~~~~~~~~
         35:  linalg.yield %3 : f32 
dag:57'0     ~~~~~~~~~~~~~~~~~~~~~~~
         36:  } 
dag:57'0     ~~~
         37:  %extracted = tensor.extract %reduced[] : tensor<f32> 
dag:57'0     ~~~~~~~~~~~~~~~~~~~~~~~~~~~~~~~~~~~~~~~~~~~~~~~~~~~~~~
         38:  %reinterpret_cast = memref.reinterpret_cast %arg0 to offset: [%c0], sizes: [1], strides: [1] : memref<*xf32> to memref<1xf32, strided<[1], offset: ?>> 
dag:57'0     ~~~~~~~~~~~~~~~~~~~~~~~~~~~~~~~~~~~~~~~~~~~~~~~~~~~~~~~~~~~~~~~~~~~~~~~~~~~~~~~~~~~~~~~~~~~~~~~~~~~~~~~~~~~~~~~~~~~~~~~~~~~~~~~~~~~~~~~~~~~~~~~~~~~~~~~~
dag:57'2                  ?                                                                                                                                           possible intended match
         39:  affine.store %extracted, %reinterpret_cast[0] : memref<1xf32, strided<[1], offset: ?>> 
dag:57'0     ~~~~~~~~~~~~~~~~~~~~~~~~~~~~~~~~~~~~~~~~~~~~~~~~~~~~~~~~~~~~~~~~~~~~~~~~~~~~~~~~~~~~~~~~
         40:  return 
dag:57'0     ~~~~~~~~
         41:  } 
dag:57'0     ~~~
         42: } 
dag:57'0     ~~
         43:  
dag:57'0     ~
>>>>>>

--

********************
PASS: TRITON-SHARED :: Conversion/TritonArithToLinalg/reduce_extend_fp32_precision.mlir (77 of 215)
PASS: TRITON-SHARED :: Conversion/TritonArithToLinalg/cumsum.mlir (78 of 215)
PASS: TRITON-SHARED :: Conversion/TritonToLinalg/kernel-05-layer-norm-dwdb.mlir (79 of 215)
PASS: TRITON-SHARED :: Conversion/TritonArithToLinalg/convert_2d_elemwise_arith_ternary.mlir (80 of 215)
PASS: TRITON-SHARED :: Conversion/TritonToStructured/addptr_loopback.mlir (81 of 215)
XFAIL: TRITON-SHARED :: Conversion/StructuredToMemref/wraparound_unsupported_add_offset.mlir (82 of 215)
PASS: TRITON-SHARED :: Conversion/StructuredToMemref/make_tensor_ptr_ordering_error.mlir (83 of 215)
PASS: TRITON-SHARED :: Conversion/TritonToLinalg/addptr_2d_example.mlir (84 of 215)
PASS: TRITON-SHARED :: Conversion/TritonToStructured/nested_loops.mlir (85 of 215)
PASS: TRITON-SHARED :: Conversion/TritonToLinalg/addptr_scalar_nested.mlir (86 of 215)
PASS: TRITON-SHARED :: Conversion/TritonToLinalg/addptr_for_more_init_args.mlir (87 of 215)
PASS: TRITON-SHARED :: Conversion/TritonArithToLinalg/convert_minmax_reduce.mlir (88 of 215)
PASS: TRITON-SHARED :: Conversion/TritonToLinalg/masked_ldst_sitofp_other.mlir (89 of 215)
PASS: TRITON-SHARED :: Conversion/TritonToLinalg/addptr_scalar_for_2d.mlir (90 of 215)
PASS: TRITON-SHARED :: Conversion/TritonToLinalg/kernel-01-vector-add.mlir (91 of 215)
PASS: TRITON-SHARED :: Conversion/TritonToLinalg/use_dot_opc.mlir (92 of 215)
PASS: TRITON-SHARED :: Conversion/TritonToStructured/triton-to-structured-prepass.mlir (93 of 215)
PASS: TRITON-SHARED :: Conversion/TritonArithToLinalg/block_ptr_advance.mlir (94 of 215)
PASS: TRITON-SHARED :: Conversion/TritonToLinalg/convert_extern_elementwise.mlir (95 of 215)
PASS: TRITON-SHARED :: Conversion/TritonArithToLinalg/convert_extern_elementwise.mlir (96 of 215)
PASS: TRITON-SHARED :: Conversion/TritonToLinalg/reducesum_512_256_f32_axis0.mlir (97 of 215)
PASS: TRITON-SHARED :: Conversion/TritonToLinalg/get_num_programs.mlir (98 of 215)
PASS: TRITON-SHARED :: Conversion/TritonToLinalg/use_mid_chain.mlir (99 of 215)
PASS: TRITON-SHARED :: Conversion/TritonToLinalg/addptr_scalar_splat_2d.mlir (100 of 215)
PASS: TRITON-SHARED :: Conversion/TritonToStructured/ridiculously_nested_loops.mlir (101 of 215)
PASS: TRITON-SHARED :: Conversion/TritonToLinalg/kernel-02-fused-softmax.mlir (102 of 215)
PASS: TRITON-SHARED :: Conversion/TritonToLinalg/kernel-03-matrix-multiplication.mlir (103 of 215)
PASS: TRITON-SHARED :: Conversion/TritonToLinalg/wraparound_stacked.mlir (104 of 215)
PASS: TRITON-SHARED :: Conversion/TritonToStructured/wraparound_unsupported_add_offset.mlir (105 of 215)
PASS: TRITON-SHARED :: Conversion/TritonToLinalg/arith_not_ptr_arith.mlir (106 of 215)
PASS: TRITON-SHARED :: Conversion/TritonToLinalg/convert_2d_elemwise_arith_unary.mlir (107 of 215)
PASS: TRITON-SHARED :: Conversion/TritonToLinalg/convert_1d_elemwise_arith_unary.mlir (108 of 215)
PASS: TRITON-SHARED :: Conversion/TritonArithToLinalg/convert_2d_elemwise_arith_unary.mlir (109 of 215)
PASS: TRITON-SHARED :: Conversion/TritonToLinalg/convert_2d_elemwise_arith_binary.mlir (110 of 215)
PASS: TRITON-SHARED :: Conversion/TritonToLinalg/reducesum_middle_dim.mlir (111 of 215)
PASS: TRITON-SHARED :: Conversion/TritonArithToLinalg/bitcast.mlir (112 of 215)
PASS: TRITON-SHARED :: Conversion/TritonToLinalg/reducesum_512_256_bf16_axis0.mlir (113 of 215)
PASS: TRITON-SHARED :: Conversion/TritonToLinalg/convert_minmax_reduce.mlir (114 of 215)
PASS: TRITON-SHARED :: Conversion/TritonToStructured/addptr_nested.mlir (115 of 215)
PASS: TRITON-SHARED :: Conversion/TritonToLinalg/convert_argmin_argmax.mlir (116 of 215)
PASS: TRITON-SHARED :: Conversion/TritonArithToLinalg/convert_1d_elemwise_arith_ternary.mlir (117 of 215)
PASS: TRITON-SHARED :: Conversion/TritonArithToLinalg/reducesum_middle_dim.mlir (118 of 215)
PASS: TRITON-SHARED :: Conversion/TritonToStructured/use_dot_opc.mlir (119 of 215)
PASS: TRITON-SHARED :: Conversion/TritonToLinalg/convert_argmin_argmax_2d.mlir (120 of 215)
PASS: TRITON-SHARED :: Conversion/TritonToLinalg/addptr_for_expand_ptr.mlir (121 of 215)
PASS: TRITON-SHARED :: Conversion/TritonToLinalg/unsupported_extern_elementwise.mlir (122 of 215)
PASS: TRITON-SHARED :: Conversion/TritonToLinalg/wraparound_side_by_side.mlir (123 of 215)
PASS: TRITON-SHARED :: Conversion/TritonToLinalg/addptr_nested.mlir (124 of 215)
PASS: TRITON-SHARED :: Conversion/TritonArithToLinalg/triton_assert.mlir (125 of 215)
PASS: TRITON-SHARED :: Conversion/TritonToLinalg/addptr_for_used_after_update.mlir (126 of 215)
PASS: TRITON-SHARED :: Conversion/TritonArithToLinalg/reducesum_512_256_bf16_axis0.mlir (127 of 215)
PASS: TRITON-SHARED :: Conversion/TritonArithToLinalg/reducesum_scalar.mlir (128 of 215)
PASS: TRITON-SHARED :: Conversion/TritonToStructured/tensor_indices_loop_iterarg_with_masks.mlir (129 of 215)
PASS: TRITON-SHARED :: Conversion/TritonToLinalg/triton_assert.mlir (130 of 215)
PASS: TRITON-SHARED :: Conversion/TritonToLinalg/reducemax_32_256_bf16.mlir (131 of 215)
PASS: TRITON-SHARED :: Conversion/TritonToStructured/addptr_scalar_loopback.mlir (132 of 215)
PASS: TRITON-SHARED :: Conversion/TritonArithToLinalg/reducesum_512_256_bf16_axis1.mlir (133 of 215)
PASS: TRITON-SHARED :: Conversion/TritonArithToLinalg/convert_2d_elemwise_arith_binary.mlir (134 of 215)
PASS: TRITON-SHARED :: Conversion/TritonArithToLinalg/dot.mlir (135 of 215)
PASS: TRITON-SHARED :: Conversion/TritonToStructured/kernel-01-vector-add.mlir (136 of 215)
PASS: TRITON-SHARED :: Conversion/StructuredToMemref/convert_extern_elementwise.mlir (137 of 215)
PASS: TRITON-SHARED :: Conversion/TritonToStructured/addptr_scalar_splat_2d.mlir (138 of 215)
PASS: TRITON-SHARED :: Conversion/TritonToStructured/addptr_reshape_broadcast.mlir (139 of 215)
PASS: TRITON-SHARED :: Conversion/TritonToLinalg/kernel-05-layer-norm-fwd.mlir (140 of 215)
PASS: TRITON-SHARED :: Conversion/TritonToLinalg/masked_ldst_2d.mlir (141 of 215)
PASS: TRITON-SHARED :: Conversion/TritonToStructured/addptr_dim1.mlir (142 of 215)
PASS: TRITON-SHARED :: Conversion/TritonToStructured/arith_not_ptr_arith.mlir (143 of 215)
PASS: TRITON-SHARED :: Conversion/TritonToStructured/kernel-03-matrix-multiplication.mlir (144 of 215)
PASS: TRITON-SHARED :: Conversion/TritonToLinalg/convert_addi_reduce.mlir (145 of 215)
PASS: TRITON-SHARED :: Conversion/TritonToLinalg/addptr_loopback.mlir (146 of 215)
PASS: TRITON-SHARED :: Conversion/TritonArithToLinalg/convert_minmax_fp_reduce.mlir (147 of 215)
PASS: TRITON-SHARED :: Conversion/TritonToLinalg/convert_1d_elemwise_arith_ternary.mlir (148 of 215)
PASS: TRITON-SHARED :: Conversion/TritonArithToLinalg/convert_1d_elemwise_arith_binary.mlir (149 of 215)
PASS: TRITON-SHARED :: Conversion/TritonToStructured/addptr_for_expand_ptr.mlir (150 of 215)
PASS: TRITON-SHARED :: Conversion/TritonToLinalg/addptr_for_accumulation.mlir (151 of 215)
PASS: TRITON-SHARED :: Conversion/TritonToStructured/addptr_scalar_nested.mlir (152 of 215)
PASS: TRITON-SHARED :: Conversion/TritonArithToLinalg/early_return.mlir (153 of 215)
PASS: TRITON-SHARED :: Conversion/TritonToLinalg/use_end_chain.mlir (154 of 215)
PASS: TRITON-SHARED :: Conversion/TritonToStructured/addptr_for_accumulation.mlir (155 of 215)
PASS: TRITON-SHARED :: Conversion/TritonToStructured/use_mid_chain.mlir (156 of 215)
PASS: TRITON-SHARED :: Conversion/TritonToStructured/wraparound_side_by_side.mlir (157 of 215)
PASS: TRITON-SHARED :: Conversion/TritonToLinalg/reducesum_512_256_f32_axis1.mlir (158 of 215)
PASS: TRITON-SHARED :: Conversion/TritonToLinalg/addptr_scalar_loopback.mlir (159 of 215)
PASS: TRITON-SHARED :: Conversion/TritonToStructured/addptr_2d_example.mlir (160 of 215)
PASS: TRITON-SHARED :: Conversion/TritonToStructured/kernel-02-fused-softmax.mlir (161 of 215)
PASS: TRITON-SHARED :: Conversion/TritonToLinalg/addptr_scalar_for.mlir (162 of 215)
PASS: TRITON-SHARED :: Conversion/TritonToStructured/tensor_indices_loop_iterargs_not_used_ptranalysis_prepass.mlir (163 of 215)
PASS: TRITON-SHARED :: Conversion/TritonArithToLinalg/convert_splat_float.mlir (164 of 215)
PASS: TRITON-SHARED :: Conversion/TritonToStructured/kernel-05-layer-norm-fwd.mlir (165 of 215)
PASS: TRITON-SHARED :: Conversion/TritonToLinalg/convert_minmax_fp_reduce.mlir (166 of 215)
PASS: TRITON-SHARED :: Conversion/TritonToStructured/dot.mlir (167 of 215)
PASS: TRITON-SHARED :: Conversion/TritonToStructured/sign_extend_i32_to_i64.mlir (168 of 215)
PASS: TRITON-SHARED :: Conversion/TritonArithToLinalg/reducesum_512_256_f32_axis0.mlir (169 of 215)
PASS: TRITON-SHARED :: Conversion/TritonToLinalg/addptr_reshape_broadcast.mlir (170 of 215)
PASS: TRITON-SHARED :: Conversion/TritonToLinalg/convert_tensor_reshape.mlir (171 of 215)
PASS: TRITON-SHARED :: Conversion/TritonToStructured/addptr_for_used_before_update.mlir (172 of 215)
PASS: TRITON-SHARED :: Conversion/TritonArithToLinalg/convert_argmin_argmax_2d.mlir (173 of 215)
PASS: TRITON-SHARED :: Conversion/TritonToStructured/tensor_indices_loop_iterargs_nested.mlir (174 of 215)
PASS: TRITON-SHARED :: Conversion/TritonToStructured/addptr_for_more_init_args.mlir (175 of 215)
PASS: TRITON-SHARED :: Conversion/TritonToLinalg/addptr_scalar_splat.mlir (176 of 215)
PASS: TRITON-SHARED :: Conversion/TritonToLinalg/addptr_mul_value_const.mlir (177 of 215)
PASS: TRITON-SHARED :: Conversion/TritonToLinalg/bitcast.mlir (178 of 215)
PASS: TRITON-SHARED :: Conversion/TritonToStructured/wraparound_stacked.mlir (179 of 215)
PASS: TRITON-SHARED :: Conversion/TritonArithToLinalg/convert_tensor_reshape.mlir (180 of 215)
XFAIL: TRITON-SHARED :: Conversion/TritonToLinalg/addptr_dim1.mlir (181 of 215)
PASS: TRITON-SHARED :: Conversion/TritonArithToLinalg/convert_addi_reduce.mlir (182 of 215)
PASS: TRITON-SHARED :: Conversion/TritonToLinalg/addptr_scalar_broadcast.mlir (183 of 215)
PASS: TRITON-SHARED :: Conversion/TritonToStructured/addptr_scalar_for_2d.mlir (184 of 215)
PASS: TRITON-SHARED :: Conversion/TritonToLinalg/addptr_for_used_before_update.mlir (185 of 215)
PASS: TRITON-SHARED :: Conversion/TritonToLinalg/addptr_mul_const_const.mlir (186 of 215)
PASS: TRITON-SHARED :: Conversion/TritonToStructured/masked_ldst_2d.mlir (187 of 215)
PASS: TRITON-SHARED :: Conversion/TritonToLinalg/block_ptr_advance.mlir (188 of 215)
PASS: TRITON-SHARED :: Conversion/TritonToStructured/addptr_scalar_broadcast.mlir (189 of 215)
PASS: TRITON-SHARED :: Conversion/TritonToStructured/addptr_add_value.mlir (190 of 215)
PASS: TRITON-SHARED :: Conversion/TritonToStructured/addptr_mul_value_const.mlir (191 of 215)
PASS: TRITON-SHARED :: Conversion/TritonToLinalg/convert_1d_elemwise_arith_binary.mlir (192 of 215)
PASS: TRITON-SHARED :: Conversion/TritonToStructured/addptr_mul_const_const.mlir (193 of 215)
PASS: TRITON-SHARED :: Conversion/TritonArithToLinalg/convert_argmin_argmax.mlir (194 of 215)
PASS: TRITON-SHARED :: Conversion/TritonToLinalg/reducesum_512_256_bf16_axis1.mlir (195 of 215)
PASS: TRITON-SHARED :: Conversion/TritonToStructured/tensor_indices_loop_iterargs_not_used_ptranalysis_e2e.mlir (196 of 215)
PASS: TRITON-SHARED :: Conversion/TritonToLinalg/cumsum.mlir (197 of 215)
PASS: TRITON-SHARED :: Conversion/TritonArithToLinalg/reducemax_32_256_bf16.mlir (198 of 215)
PASS: TRITON-SHARED :: Conversion/TritonToStructured/block_ptr_advance.mlir (199 of 215)
PASS: TRITON-SHARED :: Conversion/TritonToLinalg/convert_minmax.mlir (200 of 215)
PASS: TRITON-SHARED :: Conversion/TritonArithToLinalg/reducesum_512_256_f32_axis1.mlir (201 of 215)
PASS: TRITON-SHARED :: Conversion/TritonToStructured/addptr_scalar_for.mlir (202 of 215)
PASS: TRITON-SHARED :: Conversion/TritonArithToLinalg/unsupported_extern_elementwise.mlir (203 of 215)
PASS: TRITON-SHARED :: Conversion/TritonToStructured/use_end_chain.mlir (204 of 215)
PASS: TRITON-SHARED :: Conversion/TritonArithToLinalg/convert_1d_elemwise_arith_unary.mlir (205 of 215)
PASS: TRITON-SHARED :: Conversion/TritonToLinalg/masked_ldst_1d.mlir (206 of 215)
PASS: TRITON-SHARED :: Conversion/TritonToLinalg/dot.mlir (207 of 215)
PASS: TRITON-SHARED :: Conversion/TritonToLinalg/convert_2d_elemwise_arith_ternary.mlir (208 of 215)
PASS: TRITON-SHARED :: Conversion/TritonToStructured/masked_ldst_1d.mlir (209 of 215)
PASS: TRITON-SHARED :: Conversion/TritonToStructured/kernel-05-layer-norm-dwdb.mlir (210 of 215)
PASS: TRITON-SHARED :: Conversion/TritonToStructured/bitcast.mlir (211 of 215)
PASS: TRITON-SHARED :: Conversion/TritonToLinalg/reducesum_scalar.mlir (212 of 215)
PASS: TRITON-SHARED :: Conversion/TritonToLinalg/convert_splat_float.mlir (213 of 215)
PASS: TRITON-SHARED :: Conversion/TritonToStructured/masked_ldst_sitofp_other.mlir (214 of 215)
XFAIL: TRITON-SHARED :: Conversion/TritonToLinalg/wraparound_unsupported_add_offset.mlir (215 of 215)
********************
Failed Tests (31):
  TRITON-SHARED :: Conversion/StructuredToMemref/addptr_chain.mlir
  TRITON-SHARED :: Conversion/StructuredToMemref/addptr_dim1.mlir
  TRITON-SHARED :: Conversion/StructuredToMemref/addptr_nested.mlir
  TRITON-SHARED :: Conversion/StructuredToMemref/addptr_scalar_for.mlir
  TRITON-SHARED :: Conversion/StructuredToMemref/addptr_scalar_for_2d.mlir
  TRITON-SHARED :: Conversion/StructuredToMemref/addptr_scalar_loopback.mlir
  TRITON-SHARED :: Conversion/StructuredToMemref/block_ptr_advance.mlir
  TRITON-SHARED :: Conversion/StructuredToMemref/block_ptr_complex_offset.mlir
  TRITON-SHARED :: Conversion/StructuredToMemref/convert_1d_elemwise_arith_binary.mlir
  TRITON-SHARED :: Conversion/StructuredToMemref/convert_1d_elemwise_arith_ternary.mlir
  TRITON-SHARED :: Conversion/StructuredToMemref/convert_1d_elemwise_arith_unary.mlir
  TRITON-SHARED :: Conversion/StructuredToMemref/convert_2d_elemwise_arith_binary.mlir
  TRITON-SHARED :: Conversion/StructuredToMemref/convert_2d_elemwise_arith_ternary.mlir
  TRITON-SHARED :: Conversion/StructuredToMemref/convert_2d_elemwise_arith_unary.mlir
  TRITON-SHARED :: Conversion/StructuredToMemref/convert_addi_reduce.mlir
  TRITON-SHARED :: Conversion/StructuredToMemref/convert_minmax.mlir
  TRITON-SHARED :: Conversion/StructuredToMemref/convert_minmax_fp_reduce.mlir
  TRITON-SHARED :: Conversion/StructuredToMemref/convert_minmax_reduce.mlir
  TRITON-SHARED :: Conversion/StructuredToMemref/convert_splat_float.mlir
  TRITON-SHARED :: Conversion/StructuredToMemref/get_num_programs.mlir
  TRITON-SHARED :: Conversion/StructuredToMemref/kernel-05-layer-norm-fwd.mlir
  TRITON-SHARED :: Conversion/StructuredToMemref/nested_loops.mlir
  TRITON-SHARED :: Conversion/StructuredToMemref/reducemax_32_256_bf16.mlir
  TRITON-SHARED :: Conversion/StructuredToMemref/reducesum_middle_dim.mlir
  TRITON-SHARED :: Conversion/StructuredToMemref/reducesum_scalar.mlir
  TRITON-SHARED :: Conversion/StructuredToMemref/ridiculously_nested_loops.mlir
  TRITON-SHARED :: Conversion/StructuredToMemref/scalar_store_loop.mlir
  TRITON-SHARED :: Conversion/StructuredToMemref/scalar_store_loop_iterargs.mlir
  TRITON-SHARED :: Conversion/StructuredToMemref/scalar_store_nested_loop.mlir
  TRITON-SHARED :: Conversion/StructuredToMemref/scalar_store_no_iterargs.mlir
  TRITON-SHARED :: Conversion/TritonToLinalg/tensor_indices_loop_iterargs_nested.mlir


Testing Time: 0.93s

Total Discovered Tests: 215
  Passed           : 181 (84.19%)
  Expectedly Failed:   3 (1.40%)
  Failed           :  31 (14.42%)
